{"format": "graph-model", "generatedBy": "2.1.0", "convertedBy": "TensorFlow.js Converter v1.7.0", "userDefinedMetadata": {"signature": {"inputs": {"inputs_0:0": {"name": "inputs_0:0", "dtype": "DT_FLOAT", "tensorShape": {"dim": [{"size": "-1"}, {"size": "-1"}, {"size": "-1"}, {"size": "-1"}]}}}, "outputs": {"Identity_1:0": {"name": "Identity_1:0", "dtype": "DT_FLOAT", "tensorShape": {"dim": [{"size": "-1"}, {"size": "-1"}, {"size": "-1"}, {"size": "1"}]}}, "Identity:0": {"name": "Identity:0", "dtype": "DT_FLOAT", "tensorShape": {"dim": [{"size": "-1"}, {"size": "-1"}, {"size": "-1"}, {"size": "1"}]}}, "Identity_2:0": {"name": "Identity_2:0", "dtype": "DT_FLOAT", "tensorShape": {"dim": [{"size": "-1"}, {"size": "3"}, {"size": "2"}]}}}}}, "modelTopology": {"node": [{"name": "PartitionedCall/PartitionedCall_1/add/y", "op": "Const", "attr": {"value": {"tensor": {"dtype": "DT_FLOAT", "tensorShape": {}}}, "dtype": {"type": "DT_FLOAT"}}}, {"name": "ConstantFolding/PartitionedCall/truediv_6_recip", "op": "Const", "attr": {"value": {"tensor": {"dtype": "DT_FLOAT", "tensorShape": {}}}, "dtype": {"type": "DT_FLOAT"}}}, {"name": "PartitionedCall/sub_1/y", "op": "Const", "attr": {"value": {"tensor": {"dtype": "DT_FLOAT", "tensorShape": {}}}, "dtype": {"type": "DT_FLOAT"}}}, {"name": "PartitionedCall/PartitionedCall_1/floordiv/y", "op": "Const", "attr": {"dtype": {"type": "DT_INT32"}, "value": {"tensor": {"dtype": "DT_INT32", "tensorShape": {}}}}}, {"name": "PartitionedCall/PartitionedCall_1/clip_by_value/Minimum/y", "op": "Const", "attr": {"value": {"tensor": {"dtype": "DT_FLOAT", "tensorShape": {}}}, "dtype": {"type": "DT_FLOAT"}}}, {"name": "PartitionedCall/PartitionedCall_1/MirrorPad_4/paddings", "op": "Const", "attr": {"dtype": {"type": "DT_INT32"}, "value": {"tensor": {"dtype": "DT_INT32", "tensorShape": {"dim": [{"size": "4"}, {"size": "2"}]}}}}}, {"name": "PartitionedCall/PartitionedCall_1/Conv2D_4/filter", "op": "Const", "attr": {"dtype": {"type": "DT_FLOAT"}, "value": {"tensor": {"dtype": "DT_FLOAT", "tensorShape": {"dim": [{"size": "5"}, {"size": "5"}, {"size": "1"}, {"size": "1"}]}}}}}, {"name": "ConstantFolding/PartitionedCall/truediv_8_recip", "op": "Const", "attr": {"dtype": {"type": "DT_FLOAT"}, "value": {"tensor": {"dtype": "DT_FLOAT", "tensorShape": {}}}}}, {"name": "PartitionedCall/PartitionedCall/Conv2D_30/filter", "op": "Const", "attr": {"dtype": {"type": "DT_FLOAT"}, "value": {"tensor": {"dtype": "DT_FLOAT", "tensorShape": {"dim": [{"size": "1"}, {"size": "1"}, {"size": "16"}, {"size": "24"}]}}}}}, {"name": "PartitionedCall/PartitionedCall/Conv2D_28/filter", "op": "Const", "attr": {"value": {"tensor": {"dtype": "DT_FLOAT", "tensorShape": {"dim": [{"size": "1"}, {"size": "1"}, {"size": "24"}, {"size": "32"}]}}}, "dtype": {"type": "DT_FLOAT"}}}, {"name": "PartitionedCall/PartitionedCall/Conv2D_26/filter", "op": "Const", "attr": {"dtype": {"type": "DT_FLOAT"}, "value": {"tensor": {"dtype": "DT_FLOAT", "tensorShape": {"dim": [{"size": "1"}, {"size": "1"}, {"size": "32"}, {"size": "96"}]}}}}}, {"name": "PartitionedCall/PartitionedCall/Conv2D_34/filter", "op": "Const", "attr": {"value": {"tensor": {"dtype": "DT_FLOAT", "tensorShape": {"dim": [{"size": "1"}, {"size": "1"}, {"size": "16"}, {"size": "1"}]}}}, "dtype": {"type": "DT_FLOAT"}}}, {"name": "PartitionedCall/PartitionedCall/add_11/y", "op": "Const", "attr": {"value": {"tensor": {"dtype": "DT_FLOAT", "tensorShape": {"dim": [{"size": "1"}]}}}, "dtype": {"type": "DT_FLOAT"}}}, {"name": "PartitionedCall/mul_5/y", "op": "Const", "attr": {"dtype": {"type": "DT_FLOAT"}, "value": {"tensor": {"dtype": "DT_FLOAT", "tensorShape": {}}}}}, {"name": "PartitionedCall/strided_slice_2/stack_1", "op": "Const", "attr": {"value": {"tensor": {"dtype": "DT_INT32", "tensorShape": {"dim": [{"size": "1"}]}}}, "dtype": {"type": "DT_INT32"}}}, {"name": "ConstantFolding/PartitionedCall/truediv_5_recip", "op": "Const", "attr": {"dtype": {"type": "DT_FLOAT"}, "value": {"tensor": {"dtype": "DT_FLOAT", "tensorShape": {"dim": [{"size": "1"}, {"size": "1"}, {"size": "1"}, {"size": "3"}]}}}}}, {"name": "ConstantFolding/PartitionedCall/truediv_4_recip", "op": "Const", "attr": {"dtype": {"type": "DT_FLOAT"}, "value": {"tensor": {"dtype": "DT_FLOAT", "tensorShape": {}}}}}, {"name": "PartitionedCall/Cast", "op": "Const", "attr": {"value": {"tensor": {"dtype": "DT_FLOAT", "tensorShape": {}}}, "dtype": {"type": "DT_FLOAT"}}}, {"name": "ConstantFolding/PartitionedCall/truediv_2_recip", "op": "Const", "attr": {"value": {"tensor": {"dtype": "DT_FLOAT", "tensorShape": {}}}, "dtype": {"type": "DT_FLOAT"}}}, {"name": "PartitionedCall/mul_1/y", "op": "Const", "attr": {"value": {"tensor": {"dtype": "DT_FLOAT", "tensorShape": {}}}, "dtype": {"type": "DT_FLOAT"}}}, {"name": "PartitionedCall/Sub/y", "op": "Const", "attr": {"value": {"tensor": {"dtype": "DT_FLOAT", "tensorShape": {"dim": [{"size": "1"}, {"size": "1"}, {"size": "1"}, {"size": "3"}]}}}, "dtype": {"type": "DT_FLOAT"}}}, {"name": "PartitionedCall/PartitionedCall/clip_by_value/Minimum/y", "op": "Const", "attr": {"dtype": {"type": "DT_FLOAT"}, "value": {"tensor": {"dtype": "DT_FLOAT", "tensorShape": {}}}}}, {"name": "PartitionedCall/PartitionedCall_1/clip_by_value/y", "op": "Const", "attr": {"dtype": {"type": "DT_FLOAT"}, "value": {"tensor": {"dtype": "DT_FLOAT", "tensorShape": {}}}}}, {"name": "PartitionedCall/PartitionedCall/Conv2D_35/filter", "op": "Const", "attr": {"dtype": {"type": "DT_FLOAT"}, "value": {"tensor": {"dtype": "DT_FLOAT", "tensorShape": {"dim": [{"size": "1"}, {"size": "1"}, {"size": "96"}, {"size": "48"}]}}}}}, {"name": "PartitionedCall/PartitionedCall/add_12/y", "op": "Const", "attr": {"dtype": {"type": "DT_FLOAT"}, "value": {"tensor": {"dtype": "DT_FLOAT", "tensorShape": {"dim": [{"size": "48"}]}}}}}, {"name": "PartitionedCall/PartitionedCall/Const_15", "op": "Const", "attr": {"value": {"tensor": {"dtype": "DT_INT32", "tensorShape": {"dim": [{"size": "4"}, {"size": "2"}]}}}, "dtype": {"type": "DT_INT32"}}}, {"name": "PartitionedCall/PartitionedCall/Conv2D_37/filter", "op": "Const", "attr": {"dtype": {"type": "DT_FLOAT"}, "value": {"tensor": {"dtype": "DT_FLOAT", "tensorShape": {"dim": [{"size": "1"}, {"size": "1"}, {"size": "48"}, {"size": "3"}]}}}}}, {"name": "PartitionedCall/PartitionedCall/add_13/y", "op": "Const", "attr": {"value": {"tensor": {"dtype": "DT_FLOAT", "tensorShape": {"dim": [{"size": "3"}]}}}, "dtype": {"type": "DT_FLOAT"}}}, {"name": "PartitionedCall/PartitionedCall/strided_slice_6", "op": "Const", "attr": {"dtype": {"type": "DT_FLOAT"}, "value": {"tensor": {"dtype": "DT_FLOAT", "tensorShape": {"dim": [{"size": "2"}]}}}}}, {"name": "PartitionedCall/Reshape/shape/1", "op": "Const", "attr": {"dtype": {"type": "DT_INT32"}, "value": {"tensor": {"dtype": "DT_INT32", "tensorShape": {}}}}}, {"name": "PartitionedCall/PartitionedCall_1/Mean/reduction_indices", "op": "Const", "attr": {"value": {"tensor": {"dtype": "DT_INT32", "tensorShape": {}}}, "dtype": {"type": "DT_INT32"}}}, {"name": "PartitionedCall/ArgMax/dimension", "op": "Const", "attr": {"dtype": {"type": "DT_INT32"}, "value": {"tensor": {"dtype": "DT_INT32", "tensorShape": {}}}}}, {"name": "PartitionedCall/FloorMod/y", "op": "Const", "attr": {"dtype": {"type": "DT_INT32"}, "value": {"tensor": {"dtype": "DT_INT32", "tensorShape": {}}}}}, {"name": "PartitionedCall/add/y", "op": "Const", "attr": {"dtype": {"type": "DT_FLOAT"}, "value": {"tensor": {"dtype": "DT_FLOAT", "tensorShape": {}}}}}, {"name": "ConstantFolding/PartitionedCall/truediv_9_recip", "op": "Const", "attr": {"dtype": {"type": "DT_DOUBLE"}, "value": {"tensor": {"dtype": "DT_DOUBLE", "tensorShape": {}}}}}, {"name": "PartitionedCall/PartitionedCall_1/strided_slice/stack_1", "op": "Const", "attr": {"value": {"tensor": {"dtype": "DT_INT32", "tensorShape": {"dim": [{"size": "1"}]}}}, "dtype": {"type": "DT_INT32"}}}, {"name": "PartitionedCall/strided_slice_1/stack", "op": "Const", "attr": {"dtype": {"type": "DT_INT32"}, "value": {"tensor": {"dtype": "DT_INT32", "tensorShape": {"dim": [{"size": "1"}]}}}}}, {"name": "PartitionedCall/PartitionedCall_1/strided_slice/stack", "op": "Const", "attr": {"dtype": {"type": "DT_INT32"}, "value": {"tensor": {"dtype": "DT_INT32", "tensorShape": {"dim": [{"size": "1"}]}}}}}, {"name": "PartitionedCall/ExpandDims/dim", "op": "Const", "attr": {"value": {"tensor": {"dtype": "DT_INT32", "tensorShape": {}}}, "dtype": {"type": "DT_INT32"}}}, {"name": "inputs_0", "op": "Placeholder", "attr": {"shape": {"shape": {"dim": [{"size": "-1"}, {"size": "-1"}, {"size": "-1"}, {"size": "-1"}]}}, "dtype": {"type": "DT_FLOAT"}}}, {"name": "PartitionedCall/PartitionedCall/Conv2D_weights", "op": "Const", "attr": {"value": {"tensor": {"dtype": "DT_FLOAT", "tensorShape": {"dim": [{"size": "3"}, {"size": "3"}, {"size": "3"}, {"size": "32"}]}}}, "dtype": {"type": "DT_FLOAT"}}}, {"name": "PartitionedCall/PartitionedCall/Conv2D_bn_offset", "op": "Const", "attr": {"dtype": {"type": "DT_FLOAT"}, "value": {"tensor": {"dtype": "DT_FLOAT", "tensorShape": {"dim": [{"size": "32"}]}}}}}, {"name": "PartitionedCall/PartitionedCall/depthwise_weights", "op": "Const", "attr": {"dtype": {"type": "DT_FLOAT"}, "value": {"tensor": {"dtype": "DT_FLOAT", "tensorShape": {"dim": [{"size": "3"}, {"size": "3"}, {"size": "32"}, {"size": "1"}]}}}}}, {"name": "PartitionedCall/PartitionedCall/depthwise_bn_offset", "op": "Const", "attr": {"dtype": {"type": "DT_FLOAT"}, "value": {"tensor": {"dtype": "DT_FLOAT", "tensorShape": {"dim": [{"size": "32"}]}}}}}, {"name": "PartitionedCall/PartitionedCall/Conv2D_1_weights", "op": "Const", "attr": {"dtype": {"type": "DT_FLOAT"}, "value": {"tensor": {"dtype": "DT_FLOAT", "tensorShape": {"dim": [{"size": "1"}, {"size": "1"}, {"size": "32"}, {"size": "16"}]}}}}}, {"name": "PartitionedCall/PartitionedCall/Conv2D_1_bn_offset", "op": "Const", "attr": {"dtype": {"type": "DT_FLOAT"}, "value": {"tensor": {"dtype": "DT_FLOAT", "tensorShape": {"dim": [{"size": "16"}]}}}}}, {"name": "PartitionedCall/PartitionedCall/Conv2D_2_weights", "op": "Const", "attr": {"value": {"tensor": {"dtype": "DT_FLOAT", "tensorShape": {"dim": [{"size": "1"}, {"size": "1"}, {"size": "16"}, {"size": "96"}]}}}, "dtype": {"type": "DT_FLOAT"}}}, {"name": "PartitionedCall/PartitionedCall/Conv2D_2_bn_offset", "op": "Const", "attr": {"dtype": {"type": "DT_FLOAT"}, "value": {"tensor": {"dtype": "DT_FLOAT", "tensorShape": {"dim": [{"size": "96"}]}}}}}, {"name": "PartitionedCall/PartitionedCall/depthwise_1_weights", "op": "Const", "attr": {"dtype": {"type": "DT_FLOAT"}, "value": {"tensor": {"dtype": "DT_FLOAT", "tensorShape": {"dim": [{"size": "3"}, {"size": "3"}, {"size": "96"}, {"size": "1"}]}}}}}, {"name": "PartitionedCall/PartitionedCall/depthwise_1_bn_offset", "op": "Const", "attr": {"value": {"tensor": {"dtype": "DT_FLOAT", "tensorShape": {"dim": [{"size": "96"}]}}}, "dtype": {"type": "DT_FLOAT"}}}, {"name": "PartitionedCall/PartitionedCall/Conv2D_3_weights", "op": "Const", "attr": {"dtype": {"type": "DT_FLOAT"}, "value": {"tensor": {"dtype": "DT_FLOAT", "tensorShape": {"dim": [{"size": "1"}, {"size": "1"}, {"size": "96"}, {"size": "24"}]}}}}}, {"name": "PartitionedCall/PartitionedCall/Conv2D_3_bn_offset", "op": "Const", "attr": {"dtype": {"type": "DT_FLOAT"}, "value": {"tensor": {"dtype": "DT_FLOAT", "tensorShape": {"dim": [{"size": "24"}]}}}}}, {"name": "PartitionedCall/PartitionedCall/Conv2D_4_weights", "op": "Const", "attr": {"value": {"tensor": {"dtype": "DT_FLOAT", "tensorShape": {"dim": [{"size": "1"}, {"size": "1"}, {"size": "24"}, {"size": "144"}]}}}, "dtype": {"type": "DT_FLOAT"}}}, {"name": "PartitionedCall/PartitionedCall/Conv2D_4_bn_offset", "op": "Const", "attr": {"value": {"tensor": {"dtype": "DT_FLOAT", "tensorShape": {"dim": [{"size": "144"}]}}}, "dtype": {"type": "DT_FLOAT"}}}, {"name": "PartitionedCall/PartitionedCall/depthwise_2_weights", "op": "Const", "attr": {"value": {"tensor": {"dtype": "DT_FLOAT", "tensorShape": {"dim": [{"size": "3"}, {"size": "3"}, {"size": "144"}, {"size": "1"}]}}}, "dtype": {"type": "DT_FLOAT"}}}, {"name": "PartitionedCall/PartitionedCall/depthwise_2_bn_offset", "op": "Const", "attr": {"dtype": {"type": "DT_FLOAT"}, "value": {"tensor": {"dtype": "DT_FLOAT", "tensorShape": {"dim": [{"size": "144"}]}}}}}, {"name": "PartitionedCall/PartitionedCall/Conv2D_5_weights", "op": "Const", "attr": {"value": {"tensor": {"dtype": "DT_FLOAT", "tensorShape": {"dim": [{"size": "1"}, {"size": "1"}, {"size": "144"}, {"size": "24"}]}}}, "dtype": {"type": "DT_FLOAT"}}}, {"name": "PartitionedCall/PartitionedCall/Conv2D_5_bn_offset", "op": "Const", "attr": {"dtype": {"type": "DT_FLOAT"}, "value": {"tensor": {"dtype": "DT_FLOAT", "tensorShape": {"dim": [{"size": "24"}]}}}}}, {"name": "PartitionedCall/PartitionedCall/Conv2D_6_weights", "op": "Const", "attr": {"value": {"tensor": {"dtype": "DT_FLOAT", "tensorShape": {"dim": [{"size": "1"}, {"size": "1"}, {"size": "24"}, {"size": "144"}]}}}, "dtype": {"type": "DT_FLOAT"}}}, {"name": "PartitionedCall/PartitionedCall/Conv2D_6_bn_offset", "op": "Const", "attr": {"value": {"tensor": {"dtype": "DT_FLOAT", "tensorShape": {"dim": [{"size": "144"}]}}}, "dtype": {"type": "DT_FLOAT"}}}, {"name": "PartitionedCall/PartitionedCall/depthwise_3_weights", "op": "Const", "attr": {"value": {"tensor": {"dtype": "DT_FLOAT", "tensorShape": {"dim": [{"size": "3"}, {"size": "3"}, {"size": "144"}, {"size": "1"}]}}}, "dtype": {"type": "DT_FLOAT"}}}, {"name": "PartitionedCall/PartitionedCall/depthwise_3_bn_offset", "op": "Const", "attr": {"value": {"tensor": {"dtype": "DT_FLOAT", "tensorShape": {"dim": [{"size": "144"}]}}}, "dtype": {"type": "DT_FLOAT"}}}, {"name": "PartitionedCall/PartitionedCall/Conv2D_7_weights", "op": "Const", "attr": {"value": {"tensor": {"dtype": "DT_FLOAT", "tensorShape": {"dim": [{"size": "1"}, {"size": "1"}, {"size": "144"}, {"size": "32"}]}}}, "dtype": {"type": "DT_FLOAT"}}}, {"name": "PartitionedCall/PartitionedCall/Conv2D_7_bn_offset", "op": "Const", "attr": {"value": {"tensor": {"dtype": "DT_FLOAT", "tensorShape": {"dim": [{"size": "32"}]}}}, "dtype": {"type": "DT_FLOAT"}}}, {"name": "PartitionedCall/PartitionedCall/Conv2D_8_weights", "op": "Const", "attr": {"value": {"tensor": {"dtype": "DT_FLOAT", "tensorShape": {"dim": [{"size": "1"}, {"size": "1"}, {"size": "32"}, {"size": "192"}]}}}, "dtype": {"type": "DT_FLOAT"}}}, {"name": "PartitionedCall/PartitionedCall/Conv2D_8_bn_offset", "op": "Const", "attr": {"dtype": {"type": "DT_FLOAT"}, "value": {"tensor": {"dtype": "DT_FLOAT", "tensorShape": {"dim": [{"size": "192"}]}}}}}, {"name": "PartitionedCall/PartitionedCall/depthwise_4_weights", "op": "Const", "attr": {"dtype": {"type": "DT_FLOAT"}, "value": {"tensor": {"dtype": "DT_FLOAT", "tensorShape": {"dim": [{"size": "3"}, {"size": "3"}, {"size": "192"}, {"size": "1"}]}}}}}, {"name": "PartitionedCall/PartitionedCall/depthwise_4_bn_offset", "op": "Const", "attr": {"dtype": {"type": "DT_FLOAT"}, "value": {"tensor": {"dtype": "DT_FLOAT", "tensorShape": {"dim": [{"size": "192"}]}}}}}, {"name": "PartitionedCall/PartitionedCall/Conv2D_9_weights", "op": "Const", "attr": {"dtype": {"type": "DT_FLOAT"}, "value": {"tensor": {"dtype": "DT_FLOAT", "tensorShape": {"dim": [{"size": "1"}, {"size": "1"}, {"size": "192"}, {"size": "32"}]}}}}}, {"name": "PartitionedCall/PartitionedCall/Conv2D_9_bn_offset", "op": "Const", "attr": {"value": {"tensor": {"dtype": "DT_FLOAT", "tensorShape": {"dim": [{"size": "32"}]}}}, "dtype": {"type": "DT_FLOAT"}}}, {"name": "PartitionedCall/PartitionedCall/Conv2D_10_weights", "op": "Const", "attr": {"dtype": {"type": "DT_FLOAT"}, "value": {"tensor": {"dtype": "DT_FLOAT", "tensorShape": {"dim": [{"size": "1"}, {"size": "1"}, {"size": "32"}, {"size": "192"}]}}}}}, {"name": "PartitionedCall/PartitionedCall/Conv2D_10_bn_offset", "op": "Const", "attr": {"value": {"tensor": {"dtype": "DT_FLOAT", "tensorShape": {"dim": [{"size": "192"}]}}}, "dtype": {"type": "DT_FLOAT"}}}, {"name": "PartitionedCall/PartitionedCall/depthwise_5_weights", "op": "Const", "attr": {"dtype": {"type": "DT_FLOAT"}, "value": {"tensor": {"dtype": "DT_FLOAT", "tensorShape": {"dim": [{"size": "3"}, {"size": "3"}, {"size": "192"}, {"size": "1"}]}}}}}, {"name": "PartitionedCall/PartitionedCall/depthwise_5_bn_offset", "op": "Const", "attr": {"value": {"tensor": {"dtype": "DT_FLOAT", "tensorShape": {"dim": [{"size": "192"}]}}}, "dtype": {"type": "DT_FLOAT"}}}, {"name": "PartitionedCall/PartitionedCall/Conv2D_11_weights", "op": "Const", "attr": {"dtype": {"type": "DT_FLOAT"}, "value": {"tensor": {"dtype": "DT_FLOAT", "tensorShape": {"dim": [{"size": "1"}, {"size": "1"}, {"size": "192"}, {"size": "32"}]}}}}}, {"name": "PartitionedCall/PartitionedCall/Conv2D_11_bn_offset", "op": "Const", "attr": {"value": {"tensor": {"dtype": "DT_FLOAT", "tensorShape": {"dim": [{"size": "32"}]}}}, "dtype": {"type": "DT_FLOAT"}}}, {"name": "PartitionedCall/PartitionedCall/Conv2D_12_weights", "op": "Const", "attr": {"dtype": {"type": "DT_FLOAT"}, "value": {"tensor": {"dtype": "DT_FLOAT", "tensorShape": {"dim": [{"size": "1"}, {"size": "1"}, {"size": "32"}, {"size": "192"}]}}}}}, {"name": "PartitionedCall/PartitionedCall/Conv2D_12_bn_offset", "op": "Const", "attr": {"dtype": {"type": "DT_FLOAT"}, "value": {"tensor": {"dtype": "DT_FLOAT", "tensorShape": {"dim": [{"size": "192"}]}}}}}, {"name": "PartitionedCall/PartitionedCall/depthwise_6_weights", "op": "Const", "attr": {"value": {"tensor": {"dtype": "DT_FLOAT", "tensorShape": {"dim": [{"size": "3"}, {"size": "3"}, {"size": "192"}, {"size": "1"}]}}}, "dtype": {"type": "DT_FLOAT"}}}, {"name": "PartitionedCall/PartitionedCall/depthwise_6_bn_offset", "op": "Const", "attr": {"value": {"tensor": {"dtype": "DT_FLOAT", "tensorShape": {"dim": [{"size": "192"}]}}}, "dtype": {"type": "DT_FLOAT"}}}, {"name": "PartitionedCall/PartitionedCall/Conv2D_13_weights", "op": "Const", "attr": {"dtype": {"type": "DT_FLOAT"}, "value": {"tensor": {"dtype": "DT_FLOAT", "tensorShape": {"dim": [{"size": "1"}, {"size": "1"}, {"size": "192"}, {"size": "64"}]}}}}}, {"name": "PartitionedCall/PartitionedCall/Conv2D_13_bn_offset", "op": "Const", "attr": {"value": {"tensor": {"dtype": "DT_FLOAT", "tensorShape": {"dim": [{"size": "64"}]}}}, "dtype": {"type": "DT_FLOAT"}}}, {"name": "PartitionedCall/PartitionedCall/Conv2D_14_weights", "op": "Const", "attr": {"value": {"tensor": {"dtype": "DT_FLOAT", "tensorShape": {"dim": [{"size": "1"}, {"size": "1"}, {"size": "64"}, {"size": "384"}]}}}, "dtype": {"type": "DT_FLOAT"}}}, {"name": "PartitionedCall/PartitionedCall/Conv2D_14_bn_offset", "op": "Const", "attr": {"value": {"tensor": {"dtype": "DT_FLOAT", "tensorShape": {"dim": [{"size": "384"}]}}}, "dtype": {"type": "DT_FLOAT"}}}, {"name": "PartitionedCall/PartitionedCall/depthwise_7_weights", "op": "Const", "attr": {"dtype": {"type": "DT_FLOAT"}, "value": {"tensor": {"dtype": "DT_FLOAT", "tensorShape": {"dim": [{"size": "3"}, {"size": "3"}, {"size": "384"}, {"size": "1"}]}}}}}, {"name": "PartitionedCall/PartitionedCall/depthwise_7_bn_offset", "op": "Const", "attr": {"dtype": {"type": "DT_FLOAT"}, "value": {"tensor": {"dtype": "DT_FLOAT", "tensorShape": {"dim": [{"size": "384"}]}}}}}, {"name": "PartitionedCall/PartitionedCall/Conv2D_15_weights", "op": "Const", "attr": {"value": {"tensor": {"dtype": "DT_FLOAT", "tensorShape": {"dim": [{"size": "1"}, {"size": "1"}, {"size": "384"}, {"size": "64"}]}}}, "dtype": {"type": "DT_FLOAT"}}}, {"name": "PartitionedCall/PartitionedCall/Conv2D_15_bn_offset", "op": "Const", "attr": {"value": {"tensor": {"dtype": "DT_FLOAT", "tensorShape": {"dim": [{"size": "64"}]}}}, "dtype": {"type": "DT_FLOAT"}}}, {"name": "PartitionedCall/PartitionedCall/Conv2D_16_weights", "op": "Const", "attr": {"dtype": {"type": "DT_FLOAT"}, "value": {"tensor": {"dtype": "DT_FLOAT", "tensorShape": {"dim": [{"size": "1"}, {"size": "1"}, {"size": "64"}, {"size": "384"}]}}}}}, {"name": "PartitionedCall/PartitionedCall/Conv2D_16_bn_offset", "op": "Const", "attr": {"dtype": {"type": "DT_FLOAT"}, "value": {"tensor": {"dtype": "DT_FLOAT", "tensorShape": {"dim": [{"size": "384"}]}}}}}, {"name": "PartitionedCall/PartitionedCall/depthwise_8_weights", "op": "Const", "attr": {"value": {"tensor": {"dtype": "DT_FLOAT", "tensorShape": {"dim": [{"size": "3"}, {"size": "3"}, {"size": "384"}, {"size": "1"}]}}}, "dtype": {"type": "DT_FLOAT"}}}, {"name": "PartitionedCall/PartitionedCall/depthwise_8_bn_offset", "op": "Const", "attr": {"value": {"tensor": {"dtype": "DT_FLOAT", "tensorShape": {"dim": [{"size": "384"}]}}}, "dtype": {"type": "DT_FLOAT"}}}, {"name": "PartitionedCall/PartitionedCall/Conv2D_17_weights", "op": "Const", "attr": {"value": {"tensor": {"dtype": "DT_FLOAT", "tensorShape": {"dim": [{"size": "1"}, {"size": "1"}, {"size": "384"}, {"size": "64"}]}}}, "dtype": {"type": "DT_FLOAT"}}}, {"name": "PartitionedCall/PartitionedCall/Conv2D_17_bn_offset", "op": "Const", "attr": {"dtype": {"type": "DT_FLOAT"}, "value": {"tensor": {"dtype": "DT_FLOAT", "tensorShape": {"dim": [{"size": "64"}]}}}}}, {"name": "PartitionedCall/PartitionedCall/Conv2D_18_weights", "op": "Const", "attr": {"value": {"tensor": {"dtype": "DT_FLOAT", "tensorShape": {"dim": [{"size": "1"}, {"size": "1"}, {"size": "64"}, {"size": "384"}]}}}, "dtype": {"type": "DT_FLOAT"}}}, {"name": "PartitionedCall/PartitionedCall/Conv2D_18_bn_offset", "op": "Const", "attr": {"dtype": {"type": "DT_FLOAT"}, "value": {"tensor": {"dtype": "DT_FLOAT", "tensorShape": {"dim": [{"size": "384"}]}}}}}, {"name": "PartitionedCall/PartitionedCall/depthwise_9_weights", "op": "Const", "attr": {"value": {"tensor": {"dtype": "DT_FLOAT", "tensorShape": {"dim": [{"size": "3"}, {"size": "3"}, {"size": "384"}, {"size": "1"}]}}}, "dtype": {"type": "DT_FLOAT"}}}, {"name": "PartitionedCall/PartitionedCall/depthwise_9_bn_offset", "op": "Const", "attr": {"dtype": {"type": "DT_FLOAT"}, "value": {"tensor": {"dtype": "DT_FLOAT", "tensorShape": {"dim": [{"size": "384"}]}}}}}, {"name": "PartitionedCall/PartitionedCall/Conv2D_19_weights", "op": "Const", "attr": {"dtype": {"type": "DT_FLOAT"}, "value": {"tensor": {"dtype": "DT_FLOAT", "tensorShape": {"dim": [{"size": "1"}, {"size": "1"}, {"size": "384"}, {"size": "64"}]}}}}}, {"name": "PartitionedCall/PartitionedCall/Conv2D_19_bn_offset", "op": "Const", "attr": {"value": {"tensor": {"dtype": "DT_FLOAT", "tensorShape": {"dim": [{"size": "64"}]}}}, "dtype": {"type": "DT_FLOAT"}}}, {"name": "PartitionedCall/PartitionedCall/Conv2D_20_weights", "op": "Const", "attr": {"dtype": {"type": "DT_FLOAT"}, "value": {"tensor": {"dtype": "DT_FLOAT", "tensorShape": {"dim": [{"size": "1"}, {"size": "1"}, {"size": "64"}, {"size": "384"}]}}}}}, {"name": "PartitionedCall/PartitionedCall/Conv2D_20_bn_offset", "op": "Const", "attr": {"dtype": {"type": "DT_FLOAT"}, "value": {"tensor": {"dtype": "DT_FLOAT", "tensorShape": {"dim": [{"size": "384"}]}}}}}, {"name": "PartitionedCall/PartitionedCall/depthwise_10_weights", "op": "Const", "attr": {"value": {"tensor": {"dtype": "DT_FLOAT", "tensorShape": {"dim": [{"size": "3"}, {"size": "3"}, {"size": "384"}, {"size": "1"}]}}}, "dtype": {"type": "DT_FLOAT"}}}, {"name": "PartitionedCall/PartitionedCall/depthwise_10_bn_offset", "op": "Const", "attr": {"dtype": {"type": "DT_FLOAT"}, "value": {"tensor": {"dtype": "DT_FLOAT", "tensorShape": {"dim": [{"size": "384"}]}}}}}, {"name": "PartitionedCall/PartitionedCall/Conv2D_21_weights", "op": "Const", "attr": {"dtype": {"type": "DT_FLOAT"}, "value": {"tensor": {"dtype": "DT_FLOAT", "tensorShape": {"dim": [{"size": "1"}, {"size": "1"}, {"size": "384"}, {"size": "96"}]}}}}}, {"name": "PartitionedCall/PartitionedCall/Conv2D_21_bn_offset", "op": "Const", "attr": {"value": {"tensor": {"dtype": "DT_FLOAT", "tensorShape": {"dim": [{"size": "96"}]}}}, "dtype": {"type": "DT_FLOAT"}}}, {"name": "PartitionedCall/PartitionedCall/Conv2D_22_weights", "op": "Const", "attr": {"dtype": {"type": "DT_FLOAT"}, "value": {"tensor": {"dtype": "DT_FLOAT", "tensorShape": {"dim": [{"size": "1"}, {"size": "1"}, {"size": "96"}, {"size": "576"}]}}}}}, {"name": "PartitionedCall/PartitionedCall/Conv2D_22_bn_offset", "op": "Const", "attr": {"dtype": {"type": "DT_FLOAT"}, "value": {"tensor": {"dtype": "DT_FLOAT", "tensorShape": {"dim": [{"size": "576"}]}}}}}, {"name": "PartitionedCall/PartitionedCall/depthwise_11_weights", "op": "Const", "attr": {"value": {"tensor": {"dtype": "DT_FLOAT", "tensorShape": {"dim": [{"size": "3"}, {"size": "3"}, {"size": "576"}, {"size": "1"}]}}}, "dtype": {"type": "DT_FLOAT"}}}, {"name": "PartitionedCall/PartitionedCall/depthwise_11_bn_offset", "op": "Const", "attr": {"dtype": {"type": "DT_FLOAT"}, "value": {"tensor": {"dtype": "DT_FLOAT", "tensorShape": {"dim": [{"size": "576"}]}}}}}, {"name": "PartitionedCall/PartitionedCall/Conv2D_23_weights", "op": "Const", "attr": {"value": {"tensor": {"dtype": "DT_FLOAT", "tensorShape": {"dim": [{"size": "1"}, {"size": "1"}, {"size": "576"}, {"size": "96"}]}}}, "dtype": {"type": "DT_FLOAT"}}}, {"name": "PartitionedCall/PartitionedCall/Conv2D_23_bn_offset", "op": "Const", "attr": {"dtype": {"type": "DT_FLOAT"}, "value": {"tensor": {"dtype": "DT_FLOAT", "tensorShape": {"dim": [{"size": "96"}]}}}}}, {"name": "PartitionedCall/PartitionedCall/Conv2D_24_weights", "op": "Const", "attr": {"dtype": {"type": "DT_FLOAT"}, "value": {"tensor": {"dtype": "DT_FLOAT", "tensorShape": {"dim": [{"size": "1"}, {"size": "1"}, {"size": "96"}, {"size": "576"}]}}}}}, {"name": "PartitionedCall/PartitionedCall/Conv2D_24_bn_offset", "op": "Const", "attr": {"value": {"tensor": {"dtype": "DT_FLOAT", "tensorShape": {"dim": [{"size": "576"}]}}}, "dtype": {"type": "DT_FLOAT"}}}, {"name": "PartitionedCall/PartitionedCall/depthwise_12_weights", "op": "Const", "attr": {"value": {"tensor": {"dtype": "DT_FLOAT", "tensorShape": {"dim": [{"size": "3"}, {"size": "3"}, {"size": "576"}, {"size": "1"}]}}}, "dtype": {"type": "DT_FLOAT"}}}, {"name": "PartitionedCall/PartitionedCall/depthwise_12_bn_offset", "op": "Const", "attr": {"dtype": {"type": "DT_FLOAT"}, "value": {"tensor": {"dtype": "DT_FLOAT", "tensorShape": {"dim": [{"size": "576"}]}}}}}, {"name": "PartitionedCall/PartitionedCall/Conv2D_25_weights", "op": "Const", "attr": {"dtype": {"type": "DT_FLOAT"}, "value": {"tensor": {"dtype": "DT_FLOAT", "tensorShape": {"dim": [{"size": "1"}, {"size": "1"}, {"size": "576"}, {"size": "96"}]}}}}}, {"name": "PartitionedCall/PartitionedCall/Conv2D_25_bn_offset", "op": "Const", "attr": {"dtype": {"type": "DT_FLOAT"}, "value": {"tensor": {"dtype": "DT_FLOAT", "tensorShape": {"dim": [{"size": "96"}]}}}}}, {"name": "PartitionedCall/PartitionedCall/depthwise_13_weights", "op": "Const", "attr": {"value": {"tensor": {"dtype": "DT_FLOAT", "tensorShape": {"dim": [{"size": "3"}, {"size": "3"}, {"size": "96"}, {"size": "1"}]}}}, "dtype": {"type": "DT_FLOAT"}}}, {"name": "PartitionedCall/PartitionedCall/depthwise_13_bn_offset", "op": "Const", "attr": {"value": {"tensor": {"dtype": "DT_FLOAT", "tensorShape": {"dim": [{"size": "96"}]}}}, "dtype": {"type": "DT_FLOAT"}}}, {"name": "PartitionedCall/PartitionedCall/Conv2D_36_weights", "op": "Const", "attr": {"dtype": {"type": "DT_FLOAT"}, "value": {"tensor": {"dtype": "DT_FLOAT", "tensorShape": {"dim": [{"size": "3"}, {"size": "3"}, {"size": "48"}, {"size": "48"}]}}}}}, {"name": "PartitionedCall/PartitionedCall/Conv2D_36_bn_offset", "op": "Const", "attr": {"value": {"tensor": {"dtype": "DT_FLOAT", "tensorShape": {"dim": [{"size": "48"}]}}}, "dtype": {"type": "DT_FLOAT"}}}, {"name": "PartitionedCall/PartitionedCall/Conv2D_27_weights", "op": "Const", "attr": {"dtype": {"type": "DT_FLOAT"}, "value": {"tensor": {"dtype": "DT_FLOAT", "tensorShape": {"dim": [{"size": "1"}, {"size": "1"}, {"size": "96"}, {"size": "32"}]}}}}}, {"name": "PartitionedCall/PartitionedCall/Conv2D_27_bn_offset", "op": "Const", "attr": {"dtype": {"type": "DT_FLOAT"}, "value": {"tensor": {"dtype": "DT_FLOAT", "tensorShape": {"dim": [{"size": "32"}]}}}}}, {"name": "PartitionedCall/PartitionedCall/depthwise_14_weights", "op": "Const", "attr": {"value": {"tensor": {"dtype": "DT_FLOAT", "tensorShape": {"dim": [{"size": "3"}, {"size": "3"}, {"size": "32"}, {"size": "1"}]}}}, "dtype": {"type": "DT_FLOAT"}}}, {"name": "PartitionedCall/PartitionedCall/depthwise_14_bn_offset", "op": "Const", "attr": {"value": {"tensor": {"dtype": "DT_FLOAT", "tensorShape": {"dim": [{"size": "32"}]}}}, "dtype": {"type": "DT_FLOAT"}}}, {"name": "PartitionedCall/PartitionedCall/Conv2D_29_weights", "op": "Const", "attr": {"value": {"tensor": {"dtype": "DT_FLOAT", "tensorShape": {"dim": [{"size": "1"}, {"size": "1"}, {"size": "32"}, {"size": "24"}]}}}, "dtype": {"type": "DT_FLOAT"}}}, {"name": "PartitionedCall/PartitionedCall/Conv2D_29_bn_offset", "op": "Const", "attr": {"value": {"tensor": {"dtype": "DT_FLOAT", "tensorShape": {"dim": [{"size": "24"}]}}}, "dtype": {"type": "DT_FLOAT"}}}, {"name": "PartitionedCall/PartitionedCall/depthwise_15_weights", "op": "Const", "attr": {"dtype": {"type": "DT_FLOAT"}, "value": {"tensor": {"dtype": "DT_FLOAT", "tensorShape": {"dim": [{"size": "3"}, {"size": "3"}, {"size": "24"}, {"size": "1"}]}}}}}, {"name": "PartitionedCall/PartitionedCall/depthwise_15_bn_offset", "op": "Const", "attr": {"value": {"tensor": {"dtype": "DT_FLOAT", "tensorShape": {"dim": [{"size": "24"}]}}}, "dtype": {"type": "DT_FLOAT"}}}, {"name": "PartitionedCall/PartitionedCall/Conv2D_31_weights", "op": "Const", "attr": {"value": {"tensor": {"dtype": "DT_FLOAT", "tensorShape": {"dim": [{"size": "1"}, {"size": "1"}, {"size": "24"}, {"size": "16"}]}}}, "dtype": {"type": "DT_FLOAT"}}}, {"name": "PartitionedCall/PartitionedCall/Conv2D_31_bn_offset", "op": "Const", "attr": {"value": {"tensor": {"dtype": "DT_FLOAT", "tensorShape": {"dim": [{"size": "16"}]}}}, "dtype": {"type": "DT_FLOAT"}}}, {"name": "PartitionedCall/PartitionedCall/depthwise_16_weights", "op": "Const", "attr": {"value": {"tensor": {"dtype": "DT_FLOAT", "tensorShape": {"dim": [{"size": "3"}, {"size": "3"}, {"size": "16"}, {"size": "1"}]}}}, "dtype": {"type": "DT_FLOAT"}}}, {"name": "PartitionedCall/PartitionedCall/depthwise_16_bn_offset", "op": "Const", "attr": {"dtype": {"type": "DT_FLOAT"}, "value": {"tensor": {"dtype": "DT_FLOAT", "tensorShape": {"dim": [{"size": "16"}]}}}}}, {"name": "PartitionedCall/PartitionedCall/Conv2D_32_weights", "op": "Const", "attr": {"dtype": {"type": "DT_FLOAT"}, "value": {"tensor": {"dtype": "DT_FLOAT", "tensorShape": {"dim": [{"size": "1"}, {"size": "1"}, {"size": "16"}, {"size": "16"}]}}}}}, {"name": "PartitionedCall/PartitionedCall/Conv2D_32_bn_offset", "op": "Const", "attr": {"value": {"tensor": {"dtype": "DT_FLOAT", "tensorShape": {"dim": [{"size": "16"}]}}}, "dtype": {"type": "DT_FLOAT"}}}, {"name": "PartitionedCall/PartitionedCall/depthwise_17_weights", "op": "Const", "attr": {"value": {"tensor": {"dtype": "DT_FLOAT", "tensorShape": {"dim": [{"size": "3"}, {"size": "3"}, {"size": "16"}, {"size": "1"}]}}}, "dtype": {"type": "DT_FLOAT"}}}, {"name": "PartitionedCall/PartitionedCall/depthwise_17_bn_offset", "op": "Const", "attr": {"dtype": {"type": "DT_FLOAT"}, "value": {"tensor": {"dtype": "DT_FLOAT", "tensorShape": {"dim": [{"size": "16"}]}}}}}, {"name": "PartitionedCall/PartitionedCall/Conv2D_33_weights", "op": "Const", "attr": {"value": {"tensor": {"dtype": "DT_FLOAT", "tensorShape": {"dim": [{"size": "1"}, {"size": "1"}, {"size": "16"}, {"size": "16"}]}}}, "dtype": {"type": "DT_FLOAT"}}}, {"name": "PartitionedCall/PartitionedCall/Conv2D_33_bn_offset", "op": "Const", "attr": {"dtype": {"type": "DT_FLOAT"}, "value": {"tensor": {"dtype": "DT_FLOAT", "tensorShape": {"dim": [{"size": "16"}]}}}}}, {"name": "PartitionedCall/sub_1", "op": "Sub", "input": ["inputs_0", "PartitionedCall/sub_1/y"], "attr": {"T": {"type": "DT_FLOAT"}}}, {"name": "PartitionedCall/Shape", "op": "Shape", "input": ["inputs_0"], "attr": {"T": {"type": "DT_FLOAT"}, "out_type": {"type": "DT_INT32"}}}, {"name": "PartitionedCall/truediv_6", "op": "Mul", "input": ["ConstantFolding/PartitionedCall/truediv_6_recip", "PartitionedCall/sub_1"], "attr": {"T": {"type": "DT_FLOAT"}}}, {"name": "PartitionedCall/strided_slice", "op": "StridedSlice", "input": ["PartitionedCall/Shape", "PartitionedCall/PartitionedCall_1/strided_slice/stack", "PartitionedCall/PartitionedCall_1/strided_slice/stack_1", "PartitionedCall/PartitionedCall_1/strided_slice/stack"], "attr": {"begin_mask": {"i": "0"}, "T": {"type": "DT_INT32"}, "Index": {"type": "DT_INT32"}, "new_axis_mask": {"i": "0"}, "shrink_axis_mask": {"i": "0"}, "ellipsis_mask": {"i": "0"}, "end_mask": {"i": "0"}}}, {"name": "PartitionedCall/PartitionedCall_1/Mean", "op": "Mean", "input": ["PartitionedCall/truediv_6", "PartitionedCall/PartitionedCall_1/Mean/reduction_indices"], "attr": {"keep_dims": {"b": true}, "T": {"type": "DT_FLOAT"}, "Tidx": {"type": "DT_INT32"}}}, {"name": "PartitionedCall/unstack", "op": "Unpack", "input": ["PartitionedCall/strided_slice"], "attr": {"num": {"i": "2"}, "T": {"type": "DT_INT32"}, "axis": {"i": "0"}}}, {"name": "PartitionedCall/truediv_10/Cast", "op": "Cast", "input": ["PartitionedCall/strided_slice"], "attr": {"DstT": {"type": "DT_DOUBLE"}, "Truncate": {"b": false}, "SrcT": {"type": "DT_INT32"}}}, {"name": "PartitionedCall/Cast_4", "op": "Cast", "input": ["PartitionedCall/unstack"], "attr": {"DstT": {"type": "DT_FLOAT"}, "Truncate": {"b": false}, "SrcT": {"type": "DT_INT32"}}}, {"name": "PartitionedCall/Cast_3", "op": "Cast", "input": ["PartitionedCall/unstack:1"], "attr": {"DstT": {"type": "DT_FLOAT"}, "Truncate": {"b": false}, "SrcT": {"type": "DT_INT32"}}}, {"name": "PartitionedCall/truediv_10", "op": "Mul", "input": ["ConstantFolding/PartitionedCall/truediv_9_recip", "PartitionedCall/truediv_10/Cast"], "attr": {"T": {"type": "DT_DOUBLE"}}}, {"name": "PartitionedCall/mul", "op": "Mul", "input": ["ConstantFolding/PartitionedCall/truediv_2_recip", "PartitionedCall/Cast_4"], "attr": {"T": {"type": "DT_FLOAT"}, "_grappler_ArithmeticOptimizer_MinimizeBroadcasts": {"b": true}}}, {"name": "PartitionedCall/truediv", "op": "RealDiv", "input": ["PartitionedCall/Cast", "PartitionedCall/Cast_4"], "attr": {"T": {"type": "DT_FLOAT"}}}, {"name": "PartitionedCall/truediv_1", "op": "RealDiv", "input": ["PartitionedCall/Cast", "PartitionedCall/Cast_3"], "attr": {"T": {"type": "DT_FLOAT"}}}, {"name": "PartitionedCall/mul_2", "op": "Mul", "input": ["ConstantFolding/PartitionedCall/truediv_2_recip", "PartitionedCall/Cast_3"], "attr": {"_grappler_ArithmeticOptimizer_MinimizeBroadcasts": {"b": true}, "T": {"type": "DT_FLOAT"}}}, {"name": "PartitionedCall/Cast_10", "op": "Cast", "input": ["PartitionedCall/truediv_10"], "attr": {"Truncate": {"b": false}, "SrcT": {"type": "DT_DOUBLE"}, "DstT": {"type": "DT_FLOAT"}}}, {"name": "PartitionedCall/Maximum", "op": "Maximum", "input": ["PartitionedCall/truediv", "PartitionedCall/truediv_1"], "attr": {"T": {"type": "DT_FLOAT"}}}, {"name": "PartitionedCall/strided_slice_2", "op": "StridedSlice", "input": ["PartitionedCall/Cast_10", "PartitionedCall/PartitionedCall_1/strided_slice/stack", "PartitionedCall/strided_slice_2/stack_1", "PartitionedCall/PartitionedCall_1/strided_slice/stack"], "attr": {"Index": {"type": "DT_INT32"}, "shrink_axis_mask": {"i": "1"}, "ellipsis_mask": {"i": "0"}, "end_mask": {"i": "0"}, "begin_mask": {"i": "0"}, "new_axis_mask": {"i": "0"}, "T": {"type": "DT_FLOAT"}}}, {"name": "PartitionedCall/strided_slice_3", "op": "StridedSlice", "input": ["PartitionedCall/Cast_10", "PartitionedCall/strided_slice_1/stack", "PartitionedCall/PartitionedCall_1/strided_slice/stack", "PartitionedCall/PartitionedCall_1/strided_slice/stack"], "attr": {"end_mask": {"i": "0"}, "T": {"type": "DT_FLOAT"}, "shrink_axis_mask": {"i": "1"}, "begin_mask": {"i": "0"}, "Index": {"type": "DT_INT32"}, "new_axis_mask": {"i": "0"}, "ellipsis_mask": {"i": "0"}}}, {"name": "PartitionedCall/truediv_2", "op": "Mul", "input": ["PartitionedCall/Maximum", "PartitionedCall/mul"], "attr": {"T": {"type": "DT_FLOAT"}, "_grappler_ArithmeticOptimizer_MinimizeBroadcasts": {"b": true}}}, {"name": "PartitionedCall/truediv_3", "op": "Mul", "input": ["PartitionedCall/Maximum", "PartitionedCall/mul_2"], "attr": {"_grappler_ArithmeticOptimizer_MinimizeBroadcasts": {"b": true}, "T": {"type": "DT_FLOAT"}}}, {"name": "PartitionedCall/Round", "op": "Round", "input": ["PartitionedCall/truediv_2"], "attr": {"T": {"type": "DT_FLOAT"}}}, {"name": "PartitionedCall/Round_1", "op": "Round", "input": ["PartitionedCall/truediv_3"], "attr": {"T": {"type": "DT_FLOAT"}}}, {"name": "PartitionedCall/mul_1", "op": "Mul", "input": ["PartitionedCall/Round", "PartitionedCall/mul_1/y"], "attr": {"T": {"type": "DT_FLOAT"}}}, {"name": "PartitionedCall/mul_3", "op": "Mul", "input": ["PartitionedCall/Round_1", "PartitionedCall/mul_1/y"], "attr": {"T": {"type": "DT_FLOAT"}}}, {"name": "PartitionedCall/Cast_5", "op": "Cast", "input": ["PartitionedCall/mul_1"], "attr": {"DstT": {"type": "DT_INT32"}, "SrcT": {"type": "DT_FLOAT"}, "Truncate": {"b": false}}}, {"name": "PartitionedCall/Cast_7", "op": "Cast", "input": ["PartitionedCall/mul_3"], "attr": {"SrcT": {"type": "DT_FLOAT"}, "DstT": {"type": "DT_INT32"}, "Truncate": {"b": false}}}, {"name": "PartitionedCall/resize/size", "op": "Pack", "input": ["PartitionedCall/Cast_5", "PartitionedCall/Cast_7"], "attr": {"axis": {"i": "0"}, "N": {"i": "2"}, "T": {"type": "DT_INT32"}}}, {"name": "PartitionedCall/resize/ResizeBilinear", "op": "ResizeBilinear", "input": ["inputs_0", "PartitionedCall/resize/size"], "attr": {"T": {"type": "DT_FLOAT"}, "half_pixel_centers": {"b": true}, "align_corners": {"b": false}}}, {"name": "PartitionedCall/truediv_4", "op": "Mul", "input": ["ConstantFolding/PartitionedCall/truediv_4_recip", "PartitionedCall/resize/ResizeBilinear"], "attr": {"T": {"type": "DT_FLOAT"}}}, {"name": "PartitionedCall/Sub", "op": "Sub", "input": ["PartitionedCall/truediv_4", "PartitionedCall/Sub/y"], "attr": {"T": {"type": "DT_FLOAT"}}}, {"name": "PartitionedCall/truediv_5", "op": "Mul", "input": ["ConstantFolding/PartitionedCall/truediv_5_recip", "PartitionedCall/Sub"], "attr": {"T": {"type": "DT_FLOAT"}}}, {"name": "PartitionedCall/PartitionedCall/Pad", "op": "Pad", "input": ["PartitionedCall/truediv_5", "PartitionedCall/PartitionedCall/Const_15"], "attr": {"Tpaddings": {"type": "DT_INT32"}, "T": {"type": "DT_FLOAT"}}}, {"name": "PartitionedCall/PartitionedCall/FusedBatchNormV3", "op": "_FusedConv2D", "input": ["PartitionedCall/PartitionedCall/Pad", "PartitionedCall/PartitionedCall/Conv2D_weights", "PartitionedCall/PartitionedCall/Conv2D_bn_offset"], "device": "/device:CPU:0", "attr": {"epsilon": {"f": 0.0}, "strides": {"list": {"i": ["1", "2", "2", "1"]}}, "dilations": {"list": {"i": ["1", "1", "1", "1"]}}, "explicit_paddings": {"list": {}}, "data_format": {"s": "TkhXQw=="}, "use_cudnn_on_gpu": {"b": true}, "fused_ops": {"list": {"s": ["Qmlhc0FkZA=="]}}, "padding": {"s": "VkFMSUQ="}, "T": {"type": "DT_FLOAT"}, "num_args": {"i": "1"}}}, {"name": "PartitionedCall/PartitionedCall/clip_by_value/Minimum", "op": "Minimum", "input": ["PartitionedCall/PartitionedCall/FusedBatchNormV3", "PartitionedCall/PartitionedCall/clip_by_value/Minimum/y"], "attr": {"T": {"type": "DT_FLOAT"}}}, {"name": "PartitionedCall/PartitionedCall/clip_by_value", "op": "Maximum", "input": ["PartitionedCall/PartitionedCall/clip_by_value/Minimum", "PartitionedCall/PartitionedCall_1/clip_by_value/y"], "attr": {"T": {"type": "DT_FLOAT"}}}, {"name": "PartitionedCall/PartitionedCall/Pad_1", "op": "Pad", "input": ["PartitionedCall/PartitionedCall/clip_by_value", "PartitionedCall/PartitionedCall/Const_15"], "attr": {"T": {"type": "DT_FLOAT"}, "Tpaddings": {"type": "DT_INT32"}}}, {"name": "PartitionedCall/PartitionedCall/depthwise", "op": "FusedDepthwiseConv2dNative", "input": ["PartitionedCall/PartitionedCall/Pad_1", "PartitionedCall/PartitionedCall/depthwise_weights", "PartitionedCall/PartitionedCall/depthwise_bn_offset"], "attr": {"strides": {"list": {"i": ["1", "1", "1", "1"]}}, "fused_ops": {"list": {"s": ["Qmlhc0FkZA=="]}}, "T": {"type": "DT_FLOAT"}, "num_args": {"i": "1"}, "padding": {"s": "VkFMSUQ="}, "data_format": {"s": "TkhXQw=="}, "dilations": {"list": {"i": ["1", "1", "1", "1"]}}}}, {"name": "PartitionedCall/PartitionedCall/clip_by_value_1/Minimum", "op": "Minimum", "input": ["PartitionedCall/PartitionedCall/depthwise", "PartitionedCall/PartitionedCall/clip_by_value/Minimum/y"], "attr": {"T": {"type": "DT_FLOAT"}}}, {"name": "PartitionedCall/PartitionedCall/clip_by_value_1", "op": "Maximum", "input": ["PartitionedCall/PartitionedCall/clip_by_value_1/Minimum", "PartitionedCall/PartitionedCall_1/clip_by_value/y"], "attr": {"T": {"type": "DT_FLOAT"}}}, {"name": "PartitionedCall/PartitionedCall/FusedBatchNormV3_2", "op": "_FusedConv2D", "input": ["PartitionedCall/PartitionedCall/clip_by_value_1", "PartitionedCall/PartitionedCall/Conv2D_1_weights", "PartitionedCall/PartitionedCall/Conv2D_1_bn_offset"], "device": "/device:CPU:0", "attr": {"strides": {"list": {"i": ["1", "1", "1", "1"]}}, "use_cudnn_on_gpu": {"b": true}, "T": {"type": "DT_FLOAT"}, "num_args": {"i": "1"}, "data_format": {"s": "TkhXQw=="}, "padding": {"s": "VkFMSUQ="}, "explicit_paddings": {"list": {}}, "epsilon": {"f": 0.0}, "dilations": {"list": {"i": ["1", "1", "1", "1"]}}, "fused_ops": {"list": {"s": ["Qmlhc0FkZA=="]}}}}, {"name": "PartitionedCall/PartitionedCall/Conv2D_30", "op": "Conv2D", "input": ["PartitionedCall/PartitionedCall/FusedBatchNormV3_2", "PartitionedCall/PartitionedCall/Conv2D_30/filter"], "device": "/device:CPU:0", "attr": {"strides": {"list": {"i": ["1", "1", "1", "1"]}}, "use_cudnn_on_gpu": {"b": true}, "dilations": {"list": {"i": ["1", "1", "1", "1"]}}, "T": {"type": "DT_FLOAT"}, "explicit_paddings": {"list": {}}, "padding": {"s": "VkFMSUQ="}, "data_format": {"s": "TkhXQw=="}}}, {"name": "PartitionedCall/PartitionedCall/FusedBatchNormV3_3", "op": "_FusedConv2D", "input": ["PartitionedCall/PartitionedCall/FusedBatchNormV3_2", "PartitionedCall/PartitionedCall/Conv2D_2_weights", "PartitionedCall/PartitionedCall/Conv2D_2_bn_offset"], "device": "/device:CPU:0", "attr": {"strides": {"list": {"i": ["1", "1", "1", "1"]}}, "T": {"type": "DT_FLOAT"}, "num_args": {"i": "1"}, "explicit_paddings": {"list": {}}, "data_format": {"s": "TkhXQw=="}, "padding": {"s": "VkFMSUQ="}, "fused_ops": {"list": {"s": ["Qmlhc0FkZA=="]}}, "dilations": {"list": {"i": ["1", "1", "1", "1"]}}, "epsilon": {"f": 0.0}, "use_cudnn_on_gpu": {"b": true}}}, {"name": "PartitionedCall/PartitionedCall/clip_by_value_2/Minimum", "op": "Minimum", "input": ["PartitionedCall/PartitionedCall/FusedBatchNormV3_3", "PartitionedCall/PartitionedCall/clip_by_value/Minimum/y"], "attr": {"T": {"type": "DT_FLOAT"}}}, {"name": "PartitionedCall/PartitionedCall/clip_by_value_2", "op": "Maximum", "input": ["PartitionedCall/PartitionedCall/clip_by_value_2/Minimum", "PartitionedCall/PartitionedCall_1/clip_by_value/y"], "attr": {"T": {"type": "DT_FLOAT"}}}, {"name": "PartitionedCall/PartitionedCall/Pad_2", "op": "Pad", "input": ["PartitionedCall/PartitionedCall/clip_by_value_2", "PartitionedCall/PartitionedCall/Const_15"], "attr": {"T": {"type": "DT_FLOAT"}, "Tpaddings": {"type": "DT_INT32"}}}, {"name": "PartitionedCall/PartitionedCall/depthwise_1", "op": "FusedDepthwiseConv2dNative", "input": ["PartitionedCall/PartitionedCall/Pad_2", "PartitionedCall/PartitionedCall/depthwise_1_weights", "PartitionedCall/PartitionedCall/depthwise_1_bn_offset"], "attr": {"dilations": {"list": {"i": ["1", "1", "1", "1"]}}, "T": {"type": "DT_FLOAT"}, "num_args": {"i": "1"}, "data_format": {"s": "TkhXQw=="}, "strides": {"list": {"i": ["1", "2", "2", "1"]}}, "fused_ops": {"list": {"s": ["Qmlhc0FkZA=="]}}, "padding": {"s": "VkFMSUQ="}}}, {"name": "PartitionedCall/PartitionedCall/clip_by_value_3/Minimum", "op": "Minimum", "input": ["PartitionedCall/PartitionedCall/depthwise_1", "PartitionedCall/PartitionedCall/clip_by_value/Minimum/y"], "attr": {"T": {"type": "DT_FLOAT"}}}, {"name": "PartitionedCall/PartitionedCall/clip_by_value_3", "op": "Maximum", "input": ["PartitionedCall/PartitionedCall/clip_by_value_3/Minimum", "PartitionedCall/PartitionedCall_1/clip_by_value/y"], "attr": {"T": {"type": "DT_FLOAT"}}}, {"name": "PartitionedCall/PartitionedCall/FusedBatchNormV3_5", "op": "_FusedConv2D", "input": ["PartitionedCall/PartitionedCall/clip_by_value_3", "PartitionedCall/PartitionedCall/Conv2D_3_weights", "PartitionedCall/PartitionedCall/Conv2D_3_bn_offset"], "device": "/device:CPU:0", "attr": {"num_args": {"i": "1"}, "data_format": {"s": "TkhXQw=="}, "fused_ops": {"list": {"s": ["Qmlhc0FkZA=="]}}, "explicit_paddings": {"list": {}}, "epsilon": {"f": 0.0}, "dilations": {"list": {"i": ["1", "1", "1", "1"]}}, "T": {"type": "DT_FLOAT"}, "use_cudnn_on_gpu": {"b": true}, "padding": {"s": "VkFMSUQ="}, "strides": {"list": {"i": ["1", "1", "1", "1"]}}}}, {"name": "PartitionedCall/PartitionedCall/FusedBatchNormV3_6", "op": "_FusedConv2D", "input": ["PartitionedCall/PartitionedCall/FusedBatchNormV3_5", "PartitionedCall/PartitionedCall/Conv2D_4_weights", "PartitionedCall/PartitionedCall/Conv2D_4_bn_offset"], "device": "/device:CPU:0", "attr": {"use_cudnn_on_gpu": {"b": true}, "epsilon": {"f": 0.0}, "T": {"type": "DT_FLOAT"}, "padding": {"s": "VkFMSUQ="}, "data_format": {"s": "TkhXQw=="}, "dilations": {"list": {"i": ["1", "1", "1", "1"]}}, "strides": {"list": {"i": ["1", "1", "1", "1"]}}, "fused_ops": {"list": {"s": ["Qmlhc0FkZA=="]}}, "num_args": {"i": "1"}, "explicit_paddings": {"list": {}}}}, {"name": "PartitionedCall/PartitionedCall/clip_by_value_4/Minimum", "op": "Minimum", "input": ["PartitionedCall/PartitionedCall/FusedBatchNormV3_6", "PartitionedCall/PartitionedCall/clip_by_value/Minimum/y"], "attr": {"T": {"type": "DT_FLOAT"}}}, {"name": "PartitionedCall/PartitionedCall/clip_by_value_4", "op": "Maximum", "input": ["PartitionedCall/PartitionedCall/clip_by_value_4/Minimum", "PartitionedCall/PartitionedCall_1/clip_by_value/y"], "attr": {"T": {"type": "DT_FLOAT"}}}, {"name": "PartitionedCall/PartitionedCall/Pad_3", "op": "Pad", "input": ["PartitionedCall/PartitionedCall/clip_by_value_4", "PartitionedCall/PartitionedCall/Const_15"], "attr": {"Tpaddings": {"type": "DT_INT32"}, "T": {"type": "DT_FLOAT"}}}, {"name": "PartitionedCall/PartitionedCall/depthwise_2", "op": "FusedDepthwiseConv2dNative", "input": ["PartitionedCall/PartitionedCall/Pad_3", "PartitionedCall/PartitionedCall/depthwise_2_weights", "PartitionedCall/PartitionedCall/depthwise_2_bn_offset"], "attr": {"dilations": {"list": {"i": ["1", "1", "1", "1"]}}, "T": {"type": "DT_FLOAT"}, "data_format": {"s": "TkhXQw=="}, "fused_ops": {"list": {"s": ["Qmlhc0FkZA=="]}}, "num_args": {"i": "1"}, "strides": {"list": {"i": ["1", "1", "1", "1"]}}, "padding": {"s": "VkFMSUQ="}}}, {"name": "PartitionedCall/PartitionedCall/clip_by_value_5/Minimum", "op": "Minimum", "input": ["PartitionedCall/PartitionedCall/depthwise_2", "PartitionedCall/PartitionedCall/clip_by_value/Minimum/y"], "attr": {"T": {"type": "DT_FLOAT"}}}, {"name": "PartitionedCall/PartitionedCall/clip_by_value_5", "op": "Maximum", "input": ["PartitionedCall/PartitionedCall/clip_by_value_5/Minimum", "PartitionedCall/PartitionedCall_1/clip_by_value/y"], "attr": {"T": {"type": "DT_FLOAT"}}}, {"name": "PartitionedCall/PartitionedCall/FusedBatchNormV3_8", "op": "_FusedConv2D", "input": ["PartitionedCall/PartitionedCall/clip_by_value_5", "PartitionedCall/PartitionedCall/Conv2D_5_weights", "PartitionedCall/PartitionedCall/Conv2D_5_bn_offset"], "device": "/device:CPU:0", "attr": {"strides": {"list": {"i": ["1", "1", "1", "1"]}}, "num_args": {"i": "1"}, "dilations": {"list": {"i": ["1", "1", "1", "1"]}}, "fused_ops": {"list": {"s": ["Qmlhc0FkZA=="]}}, "data_format": {"s": "TkhXQw=="}, "T": {"type": "DT_FLOAT"}, "use_cudnn_on_gpu": {"b": true}, "padding": {"s": "VkFMSUQ="}, "epsilon": {"f": 0.0}, "explicit_paddings": {"list": {}}}}, {"name": "PartitionedCall/PartitionedCall/Add", "op": "Add", "input": ["PartitionedCall/PartitionedCall/FusedBatchNormV3_5", "PartitionedCall/PartitionedCall/FusedBatchNormV3_8"], "attr": {"T": {"type": "DT_FLOAT"}}}, {"name": "PartitionedCall/PartitionedCall/Conv2D_28", "op": "Conv2D", "input": ["PartitionedCall/PartitionedCall/Add", "PartitionedCall/PartitionedCall/Conv2D_28/filter"], "device": "/device:CPU:0", "attr": {"explicit_paddings": {"list": {}}, "dilations": {"list": {"i": ["1", "1", "1", "1"]}}, "data_format": {"s": "TkhXQw=="}, "use_cudnn_on_gpu": {"b": true}, "T": {"type": "DT_FLOAT"}, "strides": {"list": {"i": ["1", "1", "1", "1"]}}, "padding": {"s": "VkFMSUQ="}}}, {"name": "PartitionedCall/PartitionedCall/FusedBatchNormV3_9", "op": "_FusedConv2D", "input": ["PartitionedCall/PartitionedCall/Add", "PartitionedCall/PartitionedCall/Conv2D_6_weights", "PartitionedCall/PartitionedCall/Conv2D_6_bn_offset"], "device": "/device:CPU:0", "attr": {"use_cudnn_on_gpu": {"b": true}, "fused_ops": {"list": {"s": ["Qmlhc0FkZA=="]}}, "padding": {"s": "VkFMSUQ="}, "dilations": {"list": {"i": ["1", "1", "1", "1"]}}, "num_args": {"i": "1"}, "T": {"type": "DT_FLOAT"}, "strides": {"list": {"i": ["1", "1", "1", "1"]}}, "epsilon": {"f": 0.0}, "explicit_paddings": {"list": {}}, "data_format": {"s": "TkhXQw=="}}}, {"name": "PartitionedCall/PartitionedCall/clip_by_value_6/Minimum", "op": "Minimum", "input": ["PartitionedCall/PartitionedCall/FusedBatchNormV3_9", "PartitionedCall/PartitionedCall/clip_by_value/Minimum/y"], "attr": {"T": {"type": "DT_FLOAT"}}}, {"name": "PartitionedCall/PartitionedCall/clip_by_value_6", "op": "Maximum", "input": ["PartitionedCall/PartitionedCall/clip_by_value_6/Minimum", "PartitionedCall/PartitionedCall_1/clip_by_value/y"], "attr": {"T": {"type": "DT_FLOAT"}}}, {"name": "PartitionedCall/PartitionedCall/Pad_4", "op": "Pad", "input": ["PartitionedCall/PartitionedCall/clip_by_value_6", "PartitionedCall/PartitionedCall/Const_15"], "attr": {"Tpaddings": {"type": "DT_INT32"}, "T": {"type": "DT_FLOAT"}}}, {"name": "PartitionedCall/PartitionedCall/depthwise_3", "op": "FusedDepthwiseConv2dNative", "input": ["PartitionedCall/PartitionedCall/Pad_4", "PartitionedCall/PartitionedCall/depthwise_3_weights", "PartitionedCall/PartitionedCall/depthwise_3_bn_offset"], "attr": {"fused_ops": {"list": {"s": ["Qmlhc0FkZA=="]}}, "strides": {"list": {"i": ["1", "2", "2", "1"]}}, "num_args": {"i": "1"}, "padding": {"s": "VkFMSUQ="}, "dilations": {"list": {"i": ["1", "1", "1", "1"]}}, "data_format": {"s": "TkhXQw=="}, "T": {"type": "DT_FLOAT"}}}, {"name": "PartitionedCall/PartitionedCall/clip_by_value_7/Minimum", "op": "Minimum", "input": ["PartitionedCall/PartitionedCall/depthwise_3", "PartitionedCall/PartitionedCall/clip_by_value/Minimum/y"], "attr": {"T": {"type": "DT_FLOAT"}}}, {"name": "PartitionedCall/PartitionedCall/clip_by_value_7", "op": "Maximum", "input": ["PartitionedCall/PartitionedCall/clip_by_value_7/Minimum", "PartitionedCall/PartitionedCall_1/clip_by_value/y"], "attr": {"T": {"type": "DT_FLOAT"}}}, {"name": "PartitionedCall/PartitionedCall/FusedBatchNormV3_11", "op": "_FusedConv2D", "input": ["PartitionedCall/PartitionedCall/clip_by_value_7", "PartitionedCall/PartitionedCall/Conv2D_7_weights", "PartitionedCall/PartitionedCall/Conv2D_7_bn_offset"], "device": "/device:CPU:0", "attr": {"epsilon": {"f": 0.0}, "dilations": {"list": {"i": ["1", "1", "1", "1"]}}, "num_args": {"i": "1"}, "T": {"type": "DT_FLOAT"}, "fused_ops": {"list": {"s": ["Qmlhc0FkZA=="]}}, "strides": {"list": {"i": ["1", "1", "1", "1"]}}, "padding": {"s": "VkFMSUQ="}, "use_cudnn_on_gpu": {"b": true}, "data_format": {"s": "TkhXQw=="}, "explicit_paddings": {"list": {}}}}, {"name": "PartitionedCall/PartitionedCall/FusedBatchNormV3_12", "op": "_FusedConv2D", "input": ["PartitionedCall/PartitionedCall/FusedBatchNormV3_11", "PartitionedCall/PartitionedCall/Conv2D_8_weights", "PartitionedCall/PartitionedCall/Conv2D_8_bn_offset"], "device": "/device:CPU:0", "attr": {"explicit_paddings": {"list": {}}, "epsilon": {"f": 0.0}, "data_format": {"s": "TkhXQw=="}, "num_args": {"i": "1"}, "dilations": {"list": {"i": ["1", "1", "1", "1"]}}, "padding": {"s": "VkFMSUQ="}, "strides": {"list": {"i": ["1", "1", "1", "1"]}}, "use_cudnn_on_gpu": {"b": true}, "fused_ops": {"list": {"s": ["Qmlhc0FkZA=="]}}, "T": {"type": "DT_FLOAT"}}}, {"name": "PartitionedCall/PartitionedCall/clip_by_value_8/Minimum", "op": "Minimum", "input": ["PartitionedCall/PartitionedCall/FusedBatchNormV3_12", "PartitionedCall/PartitionedCall/clip_by_value/Minimum/y"], "attr": {"T": {"type": "DT_FLOAT"}}}, {"name": "PartitionedCall/PartitionedCall/clip_by_value_8", "op": "Maximum", "input": ["PartitionedCall/PartitionedCall/clip_by_value_8/Minimum", "PartitionedCall/PartitionedCall_1/clip_by_value/y"], "attr": {"T": {"type": "DT_FLOAT"}}}, {"name": "PartitionedCall/PartitionedCall/Pad_5", "op": "Pad", "input": ["PartitionedCall/PartitionedCall/clip_by_value_8", "PartitionedCall/PartitionedCall/Const_15"], "attr": {"T": {"type": "DT_FLOAT"}, "Tpaddings": {"type": "DT_INT32"}}}, {"name": "PartitionedCall/PartitionedCall/depthwise_4", "op": "FusedDepthwiseConv2dNative", "input": ["PartitionedCall/PartitionedCall/Pad_5", "PartitionedCall/PartitionedCall/depthwise_4_weights", "PartitionedCall/PartitionedCall/depthwise_4_bn_offset"], "attr": {"fused_ops": {"list": {"s": ["Qmlhc0FkZA=="]}}, "data_format": {"s": "TkhXQw=="}, "T": {"type": "DT_FLOAT"}, "num_args": {"i": "1"}, "strides": {"list": {"i": ["1", "1", "1", "1"]}}, "dilations": {"list": {"i": ["1", "1", "1", "1"]}}, "padding": {"s": "VkFMSUQ="}}}, {"name": "PartitionedCall/PartitionedCall/clip_by_value_9/Minimum", "op": "Minimum", "input": ["PartitionedCall/PartitionedCall/depthwise_4", "PartitionedCall/PartitionedCall/clip_by_value/Minimum/y"], "attr": {"T": {"type": "DT_FLOAT"}}}, {"name": "PartitionedCall/PartitionedCall/clip_by_value_9", "op": "Maximum", "input": ["PartitionedCall/PartitionedCall/clip_by_value_9/Minimum", "PartitionedCall/PartitionedCall_1/clip_by_value/y"], "attr": {"T": {"type": "DT_FLOAT"}}}, {"name": "PartitionedCall/PartitionedCall/FusedBatchNormV3_14", "op": "_FusedConv2D", "input": ["PartitionedCall/PartitionedCall/clip_by_value_9", "PartitionedCall/PartitionedCall/Conv2D_9_weights", "PartitionedCall/PartitionedCall/Conv2D_9_bn_offset"], "device": "/device:CPU:0", "attr": {"num_args": {"i": "1"}, "dilations": {"list": {"i": ["1", "1", "1", "1"]}}, "padding": {"s": "VkFMSUQ="}, "fused_ops": {"list": {"s": ["Qmlhc0FkZA=="]}}, "use_cudnn_on_gpu": {"b": true}, "strides": {"list": {"i": ["1", "1", "1", "1"]}}, "epsilon": {"f": 0.0}, "data_format": {"s": "TkhXQw=="}, "explicit_paddings": {"list": {}}, "T": {"type": "DT_FLOAT"}}}, {"name": "PartitionedCall/PartitionedCall/Add_1", "op": "Add", "input": ["PartitionedCall/PartitionedCall/FusedBatchNormV3_11", "PartitionedCall/PartitionedCall/FusedBatchNormV3_14"], "attr": {"T": {"type": "DT_FLOAT"}}}, {"name": "PartitionedCall/PartitionedCall/FusedBatchNormV3_15", "op": "_FusedConv2D", "input": ["PartitionedCall/PartitionedCall/Add_1", "PartitionedCall/PartitionedCall/Conv2D_10_weights", "PartitionedCall/PartitionedCall/Conv2D_10_bn_offset"], "device": "/device:CPU:0", "attr": {"padding": {"s": "VkFMSUQ="}, "strides": {"list": {"i": ["1", "1", "1", "1"]}}, "T": {"type": "DT_FLOAT"}, "explicit_paddings": {"list": {}}, "num_args": {"i": "1"}, "epsilon": {"f": 0.0}, "fused_ops": {"list": {"s": ["Qmlhc0FkZA=="]}}, "dilations": {"list": {"i": ["1", "1", "1", "1"]}}, "use_cudnn_on_gpu": {"b": true}, "data_format": {"s": "TkhXQw=="}}}, {"name": "PartitionedCall/PartitionedCall/clip_by_value_10/Minimum", "op": "Minimum", "input": ["PartitionedCall/PartitionedCall/FusedBatchNormV3_15", "PartitionedCall/PartitionedCall/clip_by_value/Minimum/y"], "attr": {"T": {"type": "DT_FLOAT"}}}, {"name": "PartitionedCall/PartitionedCall/clip_by_value_10", "op": "Maximum", "input": ["PartitionedCall/PartitionedCall/clip_by_value_10/Minimum", "PartitionedCall/PartitionedCall_1/clip_by_value/y"], "attr": {"T": {"type": "DT_FLOAT"}}}, {"name": "PartitionedCall/PartitionedCall/Pad_6", "op": "Pad", "input": ["PartitionedCall/PartitionedCall/clip_by_value_10", "PartitionedCall/PartitionedCall/Const_15"], "attr": {"T": {"type": "DT_FLOAT"}, "Tpaddings": {"type": "DT_INT32"}}}, {"name": "PartitionedCall/PartitionedCall/depthwise_5", "op": "FusedDepthwiseConv2dNative", "input": ["PartitionedCall/PartitionedCall/Pad_6", "PartitionedCall/PartitionedCall/depthwise_5_weights", "PartitionedCall/PartitionedCall/depthwise_5_bn_offset"], "attr": {"fused_ops": {"list": {"s": ["Qmlhc0FkZA=="]}}, "dilations": {"list": {"i": ["1", "1", "1", "1"]}}, "strides": {"list": {"i": ["1", "1", "1", "1"]}}, "T": {"type": "DT_FLOAT"}, "data_format": {"s": "TkhXQw=="}, "num_args": {"i": "1"}, "padding": {"s": "VkFMSUQ="}}}, {"name": "PartitionedCall/PartitionedCall/clip_by_value_11/Minimum", "op": "Minimum", "input": ["PartitionedCall/PartitionedCall/depthwise_5", "PartitionedCall/PartitionedCall/clip_by_value/Minimum/y"], "attr": {"T": {"type": "DT_FLOAT"}}}, {"name": "PartitionedCall/PartitionedCall/clip_by_value_11", "op": "Maximum", "input": ["PartitionedCall/PartitionedCall/clip_by_value_11/Minimum", "PartitionedCall/PartitionedCall_1/clip_by_value/y"], "attr": {"T": {"type": "DT_FLOAT"}}}, {"name": "PartitionedCall/PartitionedCall/FusedBatchNormV3_17", "op": "_FusedConv2D", "input": ["PartitionedCall/PartitionedCall/clip_by_value_11", "PartitionedCall/PartitionedCall/Conv2D_11_weights", "PartitionedCall/PartitionedCall/Conv2D_11_bn_offset"], "device": "/device:CPU:0", "attr": {"explicit_paddings": {"list": {}}, "use_cudnn_on_gpu": {"b": true}, "strides": {"list": {"i": ["1", "1", "1", "1"]}}, "T": {"type": "DT_FLOAT"}, "padding": {"s": "VkFMSUQ="}, "fused_ops": {"list": {"s": ["Qmlhc0FkZA=="]}}, "data_format": {"s": "TkhXQw=="}, "num_args": {"i": "1"}, "dilations": {"list": {"i": ["1", "1", "1", "1"]}}, "epsilon": {"f": 0.0}}}, {"name": "PartitionedCall/PartitionedCall/Add_2", "op": "Add", "input": ["PartitionedCall/PartitionedCall/Add_1", "PartitionedCall/PartitionedCall/FusedBatchNormV3_17"], "attr": {"T": {"type": "DT_FLOAT"}}}, {"name": "PartitionedCall/PartitionedCall/Conv2D_26", "op": "Conv2D", "input": ["PartitionedCall/PartitionedCall/Add_2", "PartitionedCall/PartitionedCall/Conv2D_26/filter"], "device": "/device:CPU:0", "attr": {"use_cudnn_on_gpu": {"b": true}, "dilations": {"list": {"i": ["1", "1", "1", "1"]}}, "strides": {"list": {"i": ["1", "1", "1", "1"]}}, "T": {"type": "DT_FLOAT"}, "data_format": {"s": "TkhXQw=="}, "explicit_paddings": {"list": {}}, "padding": {"s": "VkFMSUQ="}}}, {"name": "PartitionedCall/PartitionedCall/FusedBatchNormV3_18", "op": "_FusedConv2D", "input": ["PartitionedCall/PartitionedCall/Add_2", "PartitionedCall/PartitionedCall/Conv2D_12_weights", "PartitionedCall/PartitionedCall/Conv2D_12_bn_offset"], "device": "/device:CPU:0", "attr": {"strides": {"list": {"i": ["1", "1", "1", "1"]}}, "num_args": {"i": "1"}, "padding": {"s": "VkFMSUQ="}, "data_format": {"s": "TkhXQw=="}, "fused_ops": {"list": {"s": ["Qmlhc0FkZA=="]}}, "T": {"type": "DT_FLOAT"}, "explicit_paddings": {"list": {}}, "dilations": {"list": {"i": ["1", "1", "1", "1"]}}, "epsilon": {"f": 0.0}, "use_cudnn_on_gpu": {"b": true}}}, {"name": "PartitionedCall/PartitionedCall/clip_by_value_12/Minimum", "op": "Minimum", "input": ["PartitionedCall/PartitionedCall/FusedBatchNormV3_18", "PartitionedCall/PartitionedCall/clip_by_value/Minimum/y"], "attr": {"T": {"type": "DT_FLOAT"}}}, {"name": "PartitionedCall/PartitionedCall/clip_by_value_12", "op": "Maximum", "input": ["PartitionedCall/PartitionedCall/clip_by_value_12/Minimum", "PartitionedCall/PartitionedCall_1/clip_by_value/y"], "attr": {"T": {"type": "DT_FLOAT"}}}, {"name": "PartitionedCall/PartitionedCall/Pad_7", "op": "Pad", "input": ["PartitionedCall/PartitionedCall/clip_by_value_12", "PartitionedCall/PartitionedCall/Const_15"], "attr": {"T": {"type": "DT_FLOAT"}, "Tpaddings": {"type": "DT_INT32"}}}, {"name": "PartitionedCall/PartitionedCall/depthwise_6", "op": "FusedDepthwiseConv2dNative", "input": ["PartitionedCall/PartitionedCall/Pad_7", "PartitionedCall/PartitionedCall/depthwise_6_weights", "PartitionedCall/PartitionedCall/depthwise_6_bn_offset"], "attr": {"fused_ops": {"list": {"s": ["Qmlhc0FkZA=="]}}, "strides": {"list": {"i": ["1", "2", "2", "1"]}}, "padding": {"s": "VkFMSUQ="}, "data_format": {"s": "TkhXQw=="}, "dilations": {"list": {"i": ["1", "1", "1", "1"]}}, "T": {"type": "DT_FLOAT"}, "num_args": {"i": "1"}}}, {"name": "PartitionedCall/PartitionedCall/clip_by_value_13/Minimum", "op": "Minimum", "input": ["PartitionedCall/PartitionedCall/depthwise_6", "PartitionedCall/PartitionedCall/clip_by_value/Minimum/y"], "attr": {"T": {"type": "DT_FLOAT"}}}, {"name": "PartitionedCall/PartitionedCall/clip_by_value_13", "op": "Maximum", "input": ["PartitionedCall/PartitionedCall/clip_by_value_13/Minimum", "PartitionedCall/PartitionedCall_1/clip_by_value/y"], "attr": {"T": {"type": "DT_FLOAT"}}}, {"name": "PartitionedCall/PartitionedCall/FusedBatchNormV3_20", "op": "_FusedConv2D", "input": ["PartitionedCall/PartitionedCall/clip_by_value_13", "PartitionedCall/PartitionedCall/Conv2D_13_weights", "PartitionedCall/PartitionedCall/Conv2D_13_bn_offset"], "device": "/device:CPU:0", "attr": {"explicit_paddings": {"list": {}}, "fused_ops": {"list": {"s": ["Qmlhc0FkZA=="]}}, "T": {"type": "DT_FLOAT"}, "strides": {"list": {"i": ["1", "1", "1", "1"]}}, "data_format": {"s": "TkhXQw=="}, "dilations": {"list": {"i": ["1", "1", "1", "1"]}}, "epsilon": {"f": 0.0}, "use_cudnn_on_gpu": {"b": true}, "padding": {"s": "VkFMSUQ="}, "num_args": {"i": "1"}}}, {"name": "PartitionedCall/PartitionedCall/FusedBatchNormV3_21", "op": "_FusedConv2D", "input": ["PartitionedCall/PartitionedCall/FusedBatchNormV3_20", "PartitionedCall/PartitionedCall/Conv2D_14_weights", "PartitionedCall/PartitionedCall/Conv2D_14_bn_offset"], "device": "/device:CPU:0", "attr": {"padding": {"s": "VkFMSUQ="}, "epsilon": {"f": 0.0}, "dilations": {"list": {"i": ["1", "1", "1", "1"]}}, "use_cudnn_on_gpu": {"b": true}, "strides": {"list": {"i": ["1", "1", "1", "1"]}}, "T": {"type": "DT_FLOAT"}, "data_format": {"s": "TkhXQw=="}, "explicit_paddings": {"list": {}}, "fused_ops": {"list": {"s": ["Qmlhc0FkZA=="]}}, "num_args": {"i": "1"}}}, {"name": "PartitionedCall/PartitionedCall/clip_by_value_14/Minimum", "op": "Minimum", "input": ["PartitionedCall/PartitionedCall/FusedBatchNormV3_21", "PartitionedCall/PartitionedCall/clip_by_value/Minimum/y"], "attr": {"T": {"type": "DT_FLOAT"}}}, {"name": "PartitionedCall/PartitionedCall/clip_by_value_14", "op": "Maximum", "input": ["PartitionedCall/PartitionedCall/clip_by_value_14/Minimum", "PartitionedCall/PartitionedCall_1/clip_by_value/y"], "attr": {"T": {"type": "DT_FLOAT"}}}, {"name": "PartitionedCall/PartitionedCall/Pad_8", "op": "Pad", "input": ["PartitionedCall/PartitionedCall/clip_by_value_14", "PartitionedCall/PartitionedCall/Const_15"], "attr": {"Tpaddings": {"type": "DT_INT32"}, "T": {"type": "DT_FLOAT"}}}, {"name": "PartitionedCall/PartitionedCall/depthwise_7", "op": "FusedDepthwiseConv2dNative", "input": ["PartitionedCall/PartitionedCall/Pad_8", "PartitionedCall/PartitionedCall/depthwise_7_weights", "PartitionedCall/PartitionedCall/depthwise_7_bn_offset"], "attr": {"data_format": {"s": "TkhXQw=="}, "dilations": {"list": {"i": ["1", "1", "1", "1"]}}, "fused_ops": {"list": {"s": ["Qmlhc0FkZA=="]}}, "strides": {"list": {"i": ["1", "1", "1", "1"]}}, "padding": {"s": "VkFMSUQ="}, "num_args": {"i": "1"}, "T": {"type": "DT_FLOAT"}}}, {"name": "PartitionedCall/PartitionedCall/clip_by_value_15/Minimum", "op": "Minimum", "input": ["PartitionedCall/PartitionedCall/depthwise_7", "PartitionedCall/PartitionedCall/clip_by_value/Minimum/y"], "attr": {"T": {"type": "DT_FLOAT"}}}, {"name": "PartitionedCall/PartitionedCall/clip_by_value_15", "op": "Maximum", "input": ["PartitionedCall/PartitionedCall/clip_by_value_15/Minimum", "PartitionedCall/PartitionedCall_1/clip_by_value/y"], "attr": {"T": {"type": "DT_FLOAT"}}}, {"name": "PartitionedCall/PartitionedCall/FusedBatchNormV3_23", "op": "_FusedConv2D", "input": ["PartitionedCall/PartitionedCall/clip_by_value_15", "PartitionedCall/PartitionedCall/Conv2D_15_weights", "PartitionedCall/PartitionedCall/Conv2D_15_bn_offset"], "device": "/device:CPU:0", "attr": {"use_cudnn_on_gpu": {"b": true}, "explicit_paddings": {"list": {}}, "data_format": {"s": "TkhXQw=="}, "epsilon": {"f": 0.0}, "padding": {"s": "VkFMSUQ="}, "T": {"type": "DT_FLOAT"}, "strides": {"list": {"i": ["1", "1", "1", "1"]}}, "fused_ops": {"list": {"s": ["Qmlhc0FkZA=="]}}, "dilations": {"list": {"i": ["1", "1", "1", "1"]}}, "num_args": {"i": "1"}}}, {"name": "PartitionedCall/PartitionedCall/Add_3", "op": "Add", "input": ["PartitionedCall/PartitionedCall/FusedBatchNormV3_20", "PartitionedCall/PartitionedCall/FusedBatchNormV3_23"], "attr": {"T": {"type": "DT_FLOAT"}}}, {"name": "PartitionedCall/PartitionedCall/FusedBatchNormV3_24", "op": "_FusedConv2D", "input": ["PartitionedCall/PartitionedCall/Add_3", "PartitionedCall/PartitionedCall/Conv2D_16_weights", "PartitionedCall/PartitionedCall/Conv2D_16_bn_offset"], "device": "/device:CPU:0", "attr": {"padding": {"s": "VkFMSUQ="}, "data_format": {"s": "TkhXQw=="}, "strides": {"list": {"i": ["1", "1", "1", "1"]}}, "fused_ops": {"list": {"s": ["Qmlhc0FkZA=="]}}, "dilations": {"list": {"i": ["1", "1", "1", "1"]}}, "use_cudnn_on_gpu": {"b": true}, "explicit_paddings": {"list": {}}, "epsilon": {"f": 0.0}, "num_args": {"i": "1"}, "T": {"type": "DT_FLOAT"}}}, {"name": "PartitionedCall/PartitionedCall/clip_by_value_16/Minimum", "op": "Minimum", "input": ["PartitionedCall/PartitionedCall/FusedBatchNormV3_24", "PartitionedCall/PartitionedCall/clip_by_value/Minimum/y"], "attr": {"T": {"type": "DT_FLOAT"}}}, {"name": "PartitionedCall/PartitionedCall/clip_by_value_16", "op": "Maximum", "input": ["PartitionedCall/PartitionedCall/clip_by_value_16/Minimum", "PartitionedCall/PartitionedCall_1/clip_by_value/y"], "attr": {"T": {"type": "DT_FLOAT"}}}, {"name": "PartitionedCall/PartitionedCall/Pad_9", "op": "Pad", "input": ["PartitionedCall/PartitionedCall/clip_by_value_16", "PartitionedCall/PartitionedCall/Const_15"], "attr": {"T": {"type": "DT_FLOAT"}, "Tpaddings": {"type": "DT_INT32"}}}, {"name": "PartitionedCall/PartitionedCall/depthwise_8", "op": "FusedDepthwiseConv2dNative", "input": ["PartitionedCall/PartitionedCall/Pad_9", "PartitionedCall/PartitionedCall/depthwise_8_weights", "PartitionedCall/PartitionedCall/depthwise_8_bn_offset"], "attr": {"fused_ops": {"list": {"s": ["Qmlhc0FkZA=="]}}, "strides": {"list": {"i": ["1", "1", "1", "1"]}}, "num_args": {"i": "1"}, "data_format": {"s": "TkhXQw=="}, "dilations": {"list": {"i": ["1", "1", "1", "1"]}}, "padding": {"s": "VkFMSUQ="}, "T": {"type": "DT_FLOAT"}}}, {"name": "PartitionedCall/PartitionedCall/clip_by_value_17/Minimum", "op": "Minimum", "input": ["PartitionedCall/PartitionedCall/depthwise_8", "PartitionedCall/PartitionedCall/clip_by_value/Minimum/y"], "attr": {"T": {"type": "DT_FLOAT"}}}, {"name": "PartitionedCall/PartitionedCall/clip_by_value_17", "op": "Maximum", "input": ["PartitionedCall/PartitionedCall/clip_by_value_17/Minimum", "PartitionedCall/PartitionedCall_1/clip_by_value/y"], "attr": {"T": {"type": "DT_FLOAT"}}}, {"name": "PartitionedCall/PartitionedCall/FusedBatchNormV3_26", "op": "_FusedConv2D", "input": ["PartitionedCall/PartitionedCall/clip_by_value_17", "PartitionedCall/PartitionedCall/Conv2D_17_weights", "PartitionedCall/PartitionedCall/Conv2D_17_bn_offset"], "device": "/device:CPU:0", "attr": {"use_cudnn_on_gpu": {"b": true}, "strides": {"list": {"i": ["1", "1", "1", "1"]}}, "T": {"type": "DT_FLOAT"}, "num_args": {"i": "1"}, "padding": {"s": "VkFMSUQ="}, "epsilon": {"f": 0.0}, "explicit_paddings": {"list": {}}, "fused_ops": {"list": {"s": ["Qmlhc0FkZA=="]}}, "data_format": {"s": "TkhXQw=="}, "dilations": {"list": {"i": ["1", "1", "1", "1"]}}}}, {"name": "PartitionedCall/PartitionedCall/Add_4", "op": "Add", "input": ["PartitionedCall/PartitionedCall/Add_3", "PartitionedCall/PartitionedCall/FusedBatchNormV3_26"], "attr": {"T": {"type": "DT_FLOAT"}}}, {"name": "PartitionedCall/PartitionedCall/FusedBatchNormV3_27", "op": "_FusedConv2D", "input": ["PartitionedCall/PartitionedCall/Add_4", "PartitionedCall/PartitionedCall/Conv2D_18_weights", "PartitionedCall/PartitionedCall/Conv2D_18_bn_offset"], "device": "/device:CPU:0", "attr": {"num_args": {"i": "1"}, "T": {"type": "DT_FLOAT"}, "strides": {"list": {"i": ["1", "1", "1", "1"]}}, "epsilon": {"f": 0.0}, "padding": {"s": "VkFMSUQ="}, "explicit_paddings": {"list": {}}, "data_format": {"s": "TkhXQw=="}, "use_cudnn_on_gpu": {"b": true}, "dilations": {"list": {"i": ["1", "1", "1", "1"]}}, "fused_ops": {"list": {"s": ["Qmlhc0FkZA=="]}}}}, {"name": "PartitionedCall/PartitionedCall/clip_by_value_18/Minimum", "op": "Minimum", "input": ["PartitionedCall/PartitionedCall/FusedBatchNormV3_27", "PartitionedCall/PartitionedCall/clip_by_value/Minimum/y"], "attr": {"T": {"type": "DT_FLOAT"}}}, {"name": "PartitionedCall/PartitionedCall/clip_by_value_18", "op": "Maximum", "input": ["PartitionedCall/PartitionedCall/clip_by_value_18/Minimum", "PartitionedCall/PartitionedCall_1/clip_by_value/y"], "attr": {"T": {"type": "DT_FLOAT"}}}, {"name": "PartitionedCall/PartitionedCall/Pad_10", "op": "Pad", "input": ["PartitionedCall/PartitionedCall/clip_by_value_18", "PartitionedCall/PartitionedCall/Const_15"], "attr": {"T": {"type": "DT_FLOAT"}, "Tpaddings": {"type": "DT_INT32"}}}, {"name": "PartitionedCall/PartitionedCall/depthwise_9", "op": "FusedDepthwiseConv2dNative", "input": ["PartitionedCall/PartitionedCall/Pad_10", "PartitionedCall/PartitionedCall/depthwise_9_weights", "PartitionedCall/PartitionedCall/depthwise_9_bn_offset"], "attr": {"padding": {"s": "VkFMSUQ="}, "dilations": {"list": {"i": ["1", "1", "1", "1"]}}, "strides": {"list": {"i": ["1", "1", "1", "1"]}}, "fused_ops": {"list": {"s": ["Qmlhc0FkZA=="]}}, "T": {"type": "DT_FLOAT"}, "data_format": {"s": "TkhXQw=="}, "num_args": {"i": "1"}}}, {"name": "PartitionedCall/PartitionedCall/clip_by_value_19/Minimum", "op": "Minimum", "input": ["PartitionedCall/PartitionedCall/depthwise_9", "PartitionedCall/PartitionedCall/clip_by_value/Minimum/y"], "attr": {"T": {"type": "DT_FLOAT"}}}, {"name": "PartitionedCall/PartitionedCall/clip_by_value_19", "op": "Maximum", "input": ["PartitionedCall/PartitionedCall/clip_by_value_19/Minimum", "PartitionedCall/PartitionedCall_1/clip_by_value/y"], "attr": {"T": {"type": "DT_FLOAT"}}}, {"name": "PartitionedCall/PartitionedCall/FusedBatchNormV3_29", "op": "_FusedConv2D", "input": ["PartitionedCall/PartitionedCall/clip_by_value_19", "PartitionedCall/PartitionedCall/Conv2D_19_weights", "PartitionedCall/PartitionedCall/Conv2D_19_bn_offset"], "device": "/device:CPU:0", "attr": {"dilations": {"list": {"i": ["1", "1", "1", "1"]}}, "epsilon": {"f": 0.0}, "fused_ops": {"list": {"s": ["Qmlhc0FkZA=="]}}, "use_cudnn_on_gpu": {"b": true}, "explicit_paddings": {"list": {}}, "data_format": {"s": "TkhXQw=="}, "padding": {"s": "VkFMSUQ="}, "strides": {"list": {"i": ["1", "1", "1", "1"]}}, "num_args": {"i": "1"}, "T": {"type": "DT_FLOAT"}}}, {"name": "PartitionedCall/PartitionedCall/Add_5", "op": "Add", "input": ["PartitionedCall/PartitionedCall/Add_4", "PartitionedCall/PartitionedCall/FusedBatchNormV3_29"], "attr": {"T": {"type": "DT_FLOAT"}}}, {"name": "PartitionedCall/PartitionedCall/FusedBatchNormV3_30", "op": "_FusedConv2D", "input": ["PartitionedCall/PartitionedCall/Add_5", "PartitionedCall/PartitionedCall/Conv2D_20_weights", "PartitionedCall/PartitionedCall/Conv2D_20_bn_offset"], "device": "/device:CPU:0", "attr": {"use_cudnn_on_gpu": {"b": true}, "epsilon": {"f": 0.0}, "num_args": {"i": "1"}, "data_format": {"s": "TkhXQw=="}, "fused_ops": {"list": {"s": ["Qmlhc0FkZA=="]}}, "dilations": {"list": {"i": ["1", "1", "1", "1"]}}, "padding": {"s": "VkFMSUQ="}, "strides": {"list": {"i": ["1", "1", "1", "1"]}}, "T": {"type": "DT_FLOAT"}, "explicit_paddings": {"list": {}}}}, {"name": "PartitionedCall/PartitionedCall/clip_by_value_20/Minimum", "op": "Minimum", "input": ["PartitionedCall/PartitionedCall/FusedBatchNormV3_30", "PartitionedCall/PartitionedCall/clip_by_value/Minimum/y"], "attr": {"T": {"type": "DT_FLOAT"}}}, {"name": "PartitionedCall/PartitionedCall/clip_by_value_20", "op": "Maximum", "input": ["PartitionedCall/PartitionedCall/clip_by_value_20/Minimum", "PartitionedCall/PartitionedCall_1/clip_by_value/y"], "attr": {"T": {"type": "DT_FLOAT"}}}, {"name": "PartitionedCall/PartitionedCall/Pad_11", "op": "Pad", "input": ["PartitionedCall/PartitionedCall/clip_by_value_20", "PartitionedCall/PartitionedCall/Const_15"], "attr": {"T": {"type": "DT_FLOAT"}, "Tpaddings": {"type": "DT_INT32"}}}, {"name": "PartitionedCall/PartitionedCall/depthwise_10", "op": "FusedDepthwiseConv2dNative", "input": ["PartitionedCall/PartitionedCall/Pad_11", "PartitionedCall/PartitionedCall/depthwise_10_weights", "PartitionedCall/PartitionedCall/depthwise_10_bn_offset"], "attr": {"dilations": {"list": {"i": ["1", "1", "1", "1"]}}, "strides": {"list": {"i": ["1", "1", "1", "1"]}}, "data_format": {"s": "TkhXQw=="}, "fused_ops": {"list": {"s": ["Qmlhc0FkZA=="]}}, "num_args": {"i": "1"}, "T": {"type": "DT_FLOAT"}, "padding": {"s": "VkFMSUQ="}}}, {"name": "PartitionedCall/PartitionedCall/clip_by_value_21/Minimum", "op": "Minimum", "input": ["PartitionedCall/PartitionedCall/depthwise_10", "PartitionedCall/PartitionedCall/clip_by_value/Minimum/y"], "attr": {"T": {"type": "DT_FLOAT"}}}, {"name": "PartitionedCall/PartitionedCall/clip_by_value_21", "op": "Maximum", "input": ["PartitionedCall/PartitionedCall/clip_by_value_21/Minimum", "PartitionedCall/PartitionedCall_1/clip_by_value/y"], "attr": {"T": {"type": "DT_FLOAT"}}}, {"name": "PartitionedCall/PartitionedCall/FusedBatchNormV3_32", "op": "_FusedConv2D", "input": ["PartitionedCall/PartitionedCall/clip_by_value_21", "PartitionedCall/PartitionedCall/Conv2D_21_weights", "PartitionedCall/PartitionedCall/Conv2D_21_bn_offset"], "device": "/device:CPU:0", "attr": {"dilations": {"list": {"i": ["1", "1", "1", "1"]}}, "strides": {"list": {"i": ["1", "1", "1", "1"]}}, "T": {"type": "DT_FLOAT"}, "use_cudnn_on_gpu": {"b": true}, "padding": {"s": "VkFMSUQ="}, "data_format": {"s": "TkhXQw=="}, "fused_ops": {"list": {"s": ["Qmlhc0FkZA=="]}}, "explicit_paddings": {"list": {}}, "num_args": {"i": "1"}, "epsilon": {"f": 0.0}}}, {"name": "PartitionedCall/PartitionedCall/FusedBatchNormV3_33", "op": "_FusedConv2D", "input": ["PartitionedCall/PartitionedCall/FusedBatchNormV3_32", "PartitionedCall/PartitionedCall/Conv2D_22_weights", "PartitionedCall/PartitionedCall/Conv2D_22_bn_offset"], "device": "/device:CPU:0", "attr": {"explicit_paddings": {"list": {}}, "strides": {"list": {"i": ["1", "1", "1", "1"]}}, "num_args": {"i": "1"}, "fused_ops": {"list": {"s": ["Qmlhc0FkZA=="]}}, "epsilon": {"f": 0.0}, "dilations": {"list": {"i": ["1", "1", "1", "1"]}}, "use_cudnn_on_gpu": {"b": true}, "padding": {"s": "VkFMSUQ="}, "T": {"type": "DT_FLOAT"}, "data_format": {"s": "TkhXQw=="}}}, {"name": "PartitionedCall/PartitionedCall/clip_by_value_22/Minimum", "op": "Minimum", "input": ["PartitionedCall/PartitionedCall/FusedBatchNormV3_33", "PartitionedCall/PartitionedCall/clip_by_value/Minimum/y"], "attr": {"T": {"type": "DT_FLOAT"}}}, {"name": "PartitionedCall/PartitionedCall/clip_by_value_22", "op": "Maximum", "input": ["PartitionedCall/PartitionedCall/clip_by_value_22/Minimum", "PartitionedCall/PartitionedCall_1/clip_by_value/y"], "attr": {"T": {"type": "DT_FLOAT"}}}, {"name": "PartitionedCall/PartitionedCall/Pad_12", "op": "Pad", "input": ["PartitionedCall/PartitionedCall/clip_by_value_22", "PartitionedCall/PartitionedCall/Const_15"], "attr": {"Tpaddings": {"type": "DT_INT32"}, "T": {"type": "DT_FLOAT"}}}, {"name": "PartitionedCall/PartitionedCall/depthwise_11", "op": "FusedDepthwiseConv2dNative", "input": ["PartitionedCall/PartitionedCall/Pad_12", "PartitionedCall/PartitionedCall/depthwise_11_weights", "PartitionedCall/PartitionedCall/depthwise_11_bn_offset"], "attr": {"padding": {"s": "VkFMSUQ="}, "num_args": {"i": "1"}, "fused_ops": {"list": {"s": ["Qmlhc0FkZA=="]}}, "strides": {"list": {"i": ["1", "1", "1", "1"]}}, "data_format": {"s": "TkhXQw=="}, "dilations": {"list": {"i": ["1", "1", "1", "1"]}}, "T": {"type": "DT_FLOAT"}}}, {"name": "PartitionedCall/PartitionedCall/clip_by_value_23/Minimum", "op": "Minimum", "input": ["PartitionedCall/PartitionedCall/depthwise_11", "PartitionedCall/PartitionedCall/clip_by_value/Minimum/y"], "attr": {"T": {"type": "DT_FLOAT"}}}, {"name": "PartitionedCall/PartitionedCall/clip_by_value_23", "op": "Maximum", "input": ["PartitionedCall/PartitionedCall/clip_by_value_23/Minimum", "PartitionedCall/PartitionedCall_1/clip_by_value/y"], "attr": {"T": {"type": "DT_FLOAT"}}}, {"name": "PartitionedCall/PartitionedCall/FusedBatchNormV3_35", "op": "_FusedConv2D", "input": ["PartitionedCall/PartitionedCall/clip_by_value_23", "PartitionedCall/PartitionedCall/Conv2D_23_weights", "PartitionedCall/PartitionedCall/Conv2D_23_bn_offset"], "device": "/device:CPU:0", "attr": {"epsilon": {"f": 0.0}, "padding": {"s": "VkFMSUQ="}, "data_format": {"s": "TkhXQw=="}, "num_args": {"i": "1"}, "use_cudnn_on_gpu": {"b": true}, "dilations": {"list": {"i": ["1", "1", "1", "1"]}}, "T": {"type": "DT_FLOAT"}, "fused_ops": {"list": {"s": ["Qmlhc0FkZA=="]}}, "explicit_paddings": {"list": {}}, "strides": {"list": {"i": ["1", "1", "1", "1"]}}}}, {"name": "PartitionedCall/PartitionedCall/Add_6", "op": "Add", "input": ["PartitionedCall/PartitionedCall/FusedBatchNormV3_32", "PartitionedCall/PartitionedCall/FusedBatchNormV3_35"], "attr": {"T": {"type": "DT_FLOAT"}}}, {"name": "PartitionedCall/PartitionedCall/FusedBatchNormV3_36", "op": "_FusedConv2D", "input": ["PartitionedCall/PartitionedCall/Add_6", "PartitionedCall/PartitionedCall/Conv2D_24_weights", "PartitionedCall/PartitionedCall/Conv2D_24_bn_offset"], "device": "/device:CPU:0", "attr": {"dilations": {"list": {"i": ["1", "1", "1", "1"]}}, "explicit_paddings": {"list": {}}, "use_cudnn_on_gpu": {"b": true}, "T": {"type": "DT_FLOAT"}, "padding": {"s": "VkFMSUQ="}, "epsilon": {"f": 0.0}, "strides": {"list": {"i": ["1", "1", "1", "1"]}}, "fused_ops": {"list": {"s": ["Qmlhc0FkZA=="]}}, "data_format": {"s": "TkhXQw=="}, "num_args": {"i": "1"}}}, {"name": "PartitionedCall/PartitionedCall/clip_by_value_24/Minimum", "op": "Minimum", "input": ["PartitionedCall/PartitionedCall/FusedBatchNormV3_36", "PartitionedCall/PartitionedCall/clip_by_value/Minimum/y"], "attr": {"T": {"type": "DT_FLOAT"}}}, {"name": "PartitionedCall/PartitionedCall/clip_by_value_24", "op": "Maximum", "input": ["PartitionedCall/PartitionedCall/clip_by_value_24/Minimum", "PartitionedCall/PartitionedCall_1/clip_by_value/y"], "attr": {"T": {"type": "DT_FLOAT"}}}, {"name": "PartitionedCall/PartitionedCall/Pad_13", "op": "Pad", "input": ["PartitionedCall/PartitionedCall/clip_by_value_24", "PartitionedCall/PartitionedCall/Const_15"], "attr": {"Tpaddings": {"type": "DT_INT32"}, "T": {"type": "DT_FLOAT"}}}, {"name": "PartitionedCall/PartitionedCall/depthwise_12", "op": "FusedDepthwiseConv2dNative", "input": ["PartitionedCall/PartitionedCall/Pad_13", "PartitionedCall/PartitionedCall/depthwise_12_weights", "PartitionedCall/PartitionedCall/depthwise_12_bn_offset"], "attr": {"fused_ops": {"list": {"s": ["Qmlhc0FkZA=="]}}, "data_format": {"s": "TkhXQw=="}, "T": {"type": "DT_FLOAT"}, "padding": {"s": "VkFMSUQ="}, "num_args": {"i": "1"}, "strides": {"list": {"i": ["1", "1", "1", "1"]}}, "dilations": {"list": {"i": ["1", "1", "1", "1"]}}}}, {"name": "PartitionedCall/PartitionedCall/clip_by_value_25/Minimum", "op": "Minimum", "input": ["PartitionedCall/PartitionedCall/depthwise_12", "PartitionedCall/PartitionedCall/clip_by_value/Minimum/y"], "attr": {"T": {"type": "DT_FLOAT"}}}, {"name": "PartitionedCall/PartitionedCall/clip_by_value_25", "op": "Maximum", "input": ["PartitionedCall/PartitionedCall/clip_by_value_25/Minimum", "PartitionedCall/PartitionedCall_1/clip_by_value/y"], "attr": {"T": {"type": "DT_FLOAT"}}}, {"name": "PartitionedCall/PartitionedCall/FusedBatchNormV3_38", "op": "_FusedConv2D", "input": ["PartitionedCall/PartitionedCall/clip_by_value_25", "PartitionedCall/PartitionedCall/Conv2D_25_weights", "PartitionedCall/PartitionedCall/Conv2D_25_bn_offset"], "device": "/device:CPU:0", "attr": {"T": {"type": "DT_FLOAT"}, "explicit_paddings": {"list": {}}, "padding": {"s": "VkFMSUQ="}, "epsilon": {"f": 0.0}, "strides": {"list": {"i": ["1", "1", "1", "1"]}}, "num_args": {"i": "1"}, "data_format": {"s": "TkhXQw=="}, "dilations": {"list": {"i": ["1", "1", "1", "1"]}}, "fused_ops": {"list": {"s": ["Qmlhc0FkZA=="]}}, "use_cudnn_on_gpu": {"b": true}}}, {"name": "PartitionedCall/PartitionedCall/Add_7", "op": "Add", "input": ["PartitionedCall/PartitionedCall/Add_6", "PartitionedCall/PartitionedCall/FusedBatchNormV3_38"], "attr": {"T": {"type": "DT_FLOAT"}}}, {"name": "PartitionedCall/PartitionedCall/Shape", "op": "Shape", "input": ["PartitionedCall/PartitionedCall/Add_7"], "attr": {"T": {"type": "DT_FLOAT"}, "out_type": {"type": "DT_INT32"}}}, {"name": "PartitionedCall/PartitionedCall/Conv2D_35", "op": "Conv2D", "input": ["PartitionedCall/PartitionedCall/Add_7", "PartitionedCall/PartitionedCall/Conv2D_35/filter"], "device": "/device:CPU:0", "attr": {"T": {"type": "DT_FLOAT"}, "strides": {"list": {"i": ["1", "1", "1", "1"]}}, "explicit_paddings": {"list": {}}, "dilations": {"list": {"i": ["1", "1", "1", "1"]}}, "data_format": {"s": "TkhXQw=="}, "padding": {"s": "VkFMSUQ="}, "use_cudnn_on_gpu": {"b": true}}}, {"name": "PartitionedCall/PartitionedCall/strided_slice_1", "op": "StridedSlice", "input": ["PartitionedCall/PartitionedCall/Shape", "PartitionedCall/PartitionedCall_1/strided_slice/stack", "PartitionedCall/PartitionedCall_1/strided_slice/stack_1", "PartitionedCall/PartitionedCall_1/strided_slice/stack"], "attr": {"Index": {"type": "DT_INT32"}, "end_mask": {"i": "0"}, "begin_mask": {"i": "0"}, "ellipsis_mask": {"i": "0"}, "new_axis_mask": {"i": "0"}, "T": {"type": "DT_INT32"}, "shrink_axis_mask": {"i": "0"}}}, {"name": "PartitionedCall/PartitionedCall/add_12", "op": "AddV2", "input": ["PartitionedCall/PartitionedCall/Conv2D_35", "PartitionedCall/PartitionedCall/add_12/y"], "attr": {"T": {"type": "DT_FLOAT"}}}, {"name": "PartitionedCall/PartitionedCall/Cast", "op": "Cast", "input": ["PartitionedCall/PartitionedCall/strided_slice_1"], "attr": {"SrcT": {"type": "DT_INT32"}, "DstT": {"type": "DT_FLOAT"}, "Truncate": {"b": false}}}, {"name": "PartitionedCall/PartitionedCall/Shape_4", "op": "Shape", "input": ["PartitionedCall/PartitionedCall/add_12"], "attr": {"T": {"type": "DT_FLOAT"}, "out_type": {"type": "DT_INT32"}}}, {"name": "PartitionedCall/PartitionedCall/mul", "op": "Mul", "input": ["PartitionedCall/PartitionedCall/Cast", "PartitionedCall/PartitionedCall/strided_slice_6"], "attr": {"T": {"type": "DT_FLOAT"}}}, {"name": "PartitionedCall/PartitionedCall/strided_slice_9", "op": "StridedSlice", "input": ["PartitionedCall/PartitionedCall/Shape_4", "PartitionedCall/PartitionedCall_1/strided_slice/stack", "PartitionedCall/PartitionedCall_1/strided_slice/stack_1", "PartitionedCall/PartitionedCall_1/strided_slice/stack"], "attr": {"new_axis_mask": {"i": "0"}, "ellipsis_mask": {"i": "0"}, "Index": {"type": "DT_INT32"}, "end_mask": {"i": "0"}, "begin_mask": {"i": "0"}, "T": {"type": "DT_INT32"}, "shrink_axis_mask": {"i": "0"}}}, {"name": "PartitionedCall/PartitionedCall/Cast_1", "op": "Cast", "input": ["PartitionedCall/PartitionedCall/mul"], "attr": {"Truncate": {"b": false}, "DstT": {"type": "DT_INT32"}, "SrcT": {"type": "DT_FLOAT"}}}, {"name": "PartitionedCall/PartitionedCall/Cast_8", "op": "Cast", "input": ["PartitionedCall/PartitionedCall/strided_slice_9"], "attr": {"Truncate": {"b": false}, "DstT": {"type": "DT_FLOAT"}, "SrcT": {"type": "DT_INT32"}}}, {"name": "PartitionedCall/PartitionedCall/resize/ResizeBilinear", "op": "ResizeBilinear", "input": ["PartitionedCall/PartitionedCall/Add_7", "PartitionedCall/PartitionedCall/Cast_1"], "attr": {"align_corners": {"b": false}, "T": {"type": "DT_FLOAT"}, "half_pixel_centers": {"b": true}}}, {"name": "PartitionedCall/PartitionedCall/mul_4", "op": "Mul", "input": ["PartitionedCall/PartitionedCall/Cast_8", "PartitionedCall/PartitionedCall/strided_slice_6"], "attr": {"T": {"type": "DT_FLOAT"}}}, {"name": "PartitionedCall/PartitionedCall/Add_8", "op": "Add", "input": ["PartitionedCall/PartitionedCall/Conv2D_26", "PartitionedCall/PartitionedCall/resize/ResizeBilinear"], "attr": {"T": {"type": "DT_FLOAT"}}}, {"name": "PartitionedCall/PartitionedCall/Cast_9", "op": "Cast", "input": ["PartitionedCall/PartitionedCall/mul_4"], "attr": {"SrcT": {"type": "DT_FLOAT"}, "DstT": {"type": "DT_INT32"}, "Truncate": {"b": false}}}, {"name": "PartitionedCall/PartitionedCall/Pad_14", "op": "Pad", "input": ["PartitionedCall/PartitionedCall/Add_8", "PartitionedCall/PartitionedCall/Const_15"], "attr": {"T": {"type": "DT_FLOAT"}, "Tpaddings": {"type": "DT_INT32"}}}, {"name": "PartitionedCall/PartitionedCall/resize_4/ResizeBilinear", "op": "ResizeBilinear", "input": ["PartitionedCall/PartitionedCall/add_12", "PartitionedCall/PartitionedCall/Cast_9"], "attr": {"T": {"type": "DT_FLOAT"}, "half_pixel_centers": {"b": true}, "align_corners": {"b": false}}}, {"name": "PartitionedCall/PartitionedCall/depthwise_13", "op": "FusedDepthwiseConv2dNative", "input": ["PartitionedCall/PartitionedCall/Pad_14", "PartitionedCall/PartitionedCall/depthwise_13_weights", "PartitionedCall/PartitionedCall/depthwise_13_bn_offset"], "attr": {"strides": {"list": {"i": ["1", "1", "1", "1"]}}, "data_format": {"s": "TkhXQw=="}, "padding": {"s": "VkFMSUQ="}, "fused_ops": {"list": {"s": ["Qmlhc0FkZA==", "UmVsdQ=="]}}, "T": {"type": "DT_FLOAT"}, "num_args": {"i": "1"}, "dilations": {"list": {"i": ["1", "1", "1", "1"]}}}}, {"name": "PartitionedCall/PartitionedCall/Pad_19", "op": "Pad", "input": ["PartitionedCall/PartitionedCall/resize_4/ResizeBilinear", "PartitionedCall/PartitionedCall/Const_15"], "attr": {"T": {"type": "DT_FLOAT"}, "Tpaddings": {"type": "DT_INT32"}}}, {"name": "PartitionedCall/PartitionedCall/Relu_10", "op": "_FusedConv2D", "input": ["PartitionedCall/PartitionedCall/Pad_19", "PartitionedCall/PartitionedCall/Conv2D_36_weights", "PartitionedCall/PartitionedCall/Conv2D_36_bn_offset"], "device": "/device:CPU:0", "attr": {"strides": {"list": {"i": ["1", "1", "1", "1"]}}, "num_args": {"i": "1"}, "dilations": {"list": {"i": ["1", "1", "1", "1"]}}, "data_format": {"s": "TkhXQw=="}, "padding": {"s": "VkFMSUQ="}, "epsilon": {"f": 0.0}, "use_cudnn_on_gpu": {"b": true}, "fused_ops": {"list": {"s": ["Qmlhc0FkZA==", "UmVsdQ=="]}}, "T": {"type": "DT_FLOAT"}, "explicit_paddings": {"list": {}}}}, {"name": "PartitionedCall/PartitionedCall/Conv2D_37", "op": "Conv2D", "input": ["PartitionedCall/PartitionedCall/Relu_10", "PartitionedCall/PartitionedCall/Conv2D_37/filter"], "device": "/device:CPU:0", "attr": {"data_format": {"s": "TkhXQw=="}, "use_cudnn_on_gpu": {"b": true}, "padding": {"s": "VkFMSUQ="}, "dilations": {"list": {"i": ["1", "1", "1", "1"]}}, "T": {"type": "DT_FLOAT"}, "strides": {"list": {"i": ["1", "1", "1", "1"]}}, "explicit_paddings": {"list": {}}}}, {"name": "PartitionedCall/PartitionedCall/Relu_1", "op": "_FusedConv2D", "input": ["PartitionedCall/PartitionedCall/depthwise_13", "PartitionedCall/PartitionedCall/Conv2D_27_weights", "PartitionedCall/PartitionedCall/Conv2D_27_bn_offset"], "device": "/device:CPU:0", "attr": {"use_cudnn_on_gpu": {"b": true}, "fused_ops": {"list": {"s": ["Qmlhc0FkZA==", "UmVsdQ=="]}}, "num_args": {"i": "1"}, "strides": {"list": {"i": ["1", "1", "1", "1"]}}, "explicit_paddings": {"list": {}}, "dilations": {"list": {"i": ["1", "1", "1", "1"]}}, "T": {"type": "DT_FLOAT"}, "padding": {"s": "VkFMSUQ="}, "data_format": {"s": "TkhXQw=="}, "epsilon": {"f": 0.0}}}, {"name": "PartitionedCall/PartitionedCall/add_13", "op": "AddV2", "input": ["PartitionedCall/PartitionedCall/Conv2D_37", "PartitionedCall/PartitionedCall/add_13/y"], "attr": {"T": {"type": "DT_FLOAT"}}}, {"name": "PartitionedCall/PartitionedCall/Shape_1", "op": "Shape", "input": ["PartitionedCall/PartitionedCall/Relu_1"], "attr": {"out_type": {"type": "DT_INT32"}, "T": {"type": "DT_FLOAT"}}}, {"name": "PartitionedCall/PartitionedCall/Shape_5", "op": "Shape", "input": ["PartitionedCall/PartitionedCall/add_13"], "attr": {"T": {"type": "DT_FLOAT"}, "out_type": {"type": "DT_INT32"}}}, {"name": "PartitionedCall/PartitionedCall/strided_slice_3", "op": "StridedSlice", "input": ["PartitionedCall/PartitionedCall/Shape_1", "PartitionedCall/PartitionedCall_1/strided_slice/stack", "PartitionedCall/PartitionedCall_1/strided_slice/stack_1", "PartitionedCall/PartitionedCall_1/strided_slice/stack"], "attr": {"begin_mask": {"i": "0"}, "new_axis_mask": {"i": "0"}, "T": {"type": "DT_INT32"}, "ellipsis_mask": {"i": "0"}, "end_mask": {"i": "0"}, "shrink_axis_mask": {"i": "0"}, "Index": {"type": "DT_INT32"}}}, {"name": "PartitionedCall/PartitionedCall/strided_slice_11", "op": "StridedSlice", "input": ["PartitionedCall/PartitionedCall/Shape_5", "PartitionedCall/PartitionedCall_1/strided_slice/stack", "PartitionedCall/PartitionedCall_1/strided_slice/stack_1", "PartitionedCall/PartitionedCall_1/strided_slice/stack"], "attr": {"end_mask": {"i": "0"}, "Index": {"type": "DT_INT32"}, "begin_mask": {"i": "0"}, "shrink_axis_mask": {"i": "0"}, "ellipsis_mask": {"i": "0"}, "new_axis_mask": {"i": "0"}, "T": {"type": "DT_INT32"}}}, {"name": "PartitionedCall/PartitionedCall/Cast_2", "op": "Cast", "input": ["PartitionedCall/PartitionedCall/strided_slice_3"], "attr": {"SrcT": {"type": "DT_INT32"}, "Truncate": {"b": false}, "DstT": {"type": "DT_FLOAT"}}}, {"name": "PartitionedCall/PartitionedCall/Cast_10", "op": "Cast", "input": ["PartitionedCall/PartitionedCall/strided_slice_11"], "attr": {"SrcT": {"type": "DT_INT32"}, "DstT": {"type": "DT_FLOAT"}, "Truncate": {"b": false}}}, {"name": "PartitionedCall/PartitionedCall/mul_1", "op": "Mul", "input": ["PartitionedCall/PartitionedCall/Cast_2", "PartitionedCall/PartitionedCall/strided_slice_6"], "attr": {"T": {"type": "DT_FLOAT"}}}, {"name": "PartitionedCall/PartitionedCall/mul_5", "op": "Mul", "input": ["PartitionedCall/PartitionedCall/Cast_10", "PartitionedCall/PartitionedCall/strided_slice_6"], "attr": {"T": {"type": "DT_FLOAT"}}}, {"name": "PartitionedCall/PartitionedCall/Cast_3", "op": "Cast", "input": ["PartitionedCall/PartitionedCall/mul_1"], "attr": {"DstT": {"type": "DT_INT32"}, "Truncate": {"b": false}, "SrcT": {"type": "DT_FLOAT"}}}, {"name": "PartitionedCall/PartitionedCall/Cast_11", "op": "Cast", "input": ["PartitionedCall/PartitionedCall/mul_5"], "attr": {"DstT": {"type": "DT_INT32"}, "SrcT": {"type": "DT_FLOAT"}, "Truncate": {"b": false}}}, {"name": "PartitionedCall/PartitionedCall/resize_1/ResizeBilinear", "op": "ResizeBilinear", "input": ["PartitionedCall/PartitionedCall/Relu_1", "PartitionedCall/PartitionedCall/Cast_3"], "attr": {"T": {"type": "DT_FLOAT"}, "align_corners": {"b": false}, "half_pixel_centers": {"b": true}}}, {"name": "PartitionedCall/PartitionedCall/resize_5/ResizeBilinear", "op": "ResizeBilinear", "input": ["PartitionedCall/PartitionedCall/add_13", "PartitionedCall/PartitionedCall/Cast_11"], "attr": {"T": {"type": "DT_FLOAT"}, "align_corners": {"b": false}, "half_pixel_centers": {"b": true}}}, {"name": "PartitionedCall/PartitionedCall/Add_9", "op": "Add", "input": ["PartitionedCall/PartitionedCall/Conv2D_28", "PartitionedCall/PartitionedCall/resize_1/ResizeBilinear"], "attr": {"T": {"type": "DT_FLOAT"}}}, {"name": "PartitionedCall/Shape_1", "op": "Shape", "input": ["PartitionedCall/PartitionedCall/resize_5/ResizeBilinear"], "attr": {"out_type": {"type": "DT_INT32"}, "T": {"type": "DT_FLOAT"}}}, {"name": "PartitionedCall/PartitionedCall/Pad_15", "op": "Pad", "input": ["PartitionedCall/PartitionedCall/Add_9", "PartitionedCall/PartitionedCall/Const_15"], "attr": {"Tpaddings": {"type": "DT_INT32"}, "T": {"type": "DT_FLOAT"}}}, {"name": "PartitionedCall/strided_slice_1", "op": "StridedSlice", "input": ["PartitionedCall/Shape_1", "PartitionedCall/strided_slice_1/stack", "PartitionedCall/PartitionedCall_1/strided_slice/stack", "PartitionedCall/PartitionedCall_1/strided_slice/stack"], "attr": {"begin_mask": {"i": "0"}, "T": {"type": "DT_INT32"}, "shrink_axis_mask": {"i": "1"}, "new_axis_mask": {"i": "0"}, "end_mask": {"i": "0"}, "Index": {"type": "DT_INT32"}, "ellipsis_mask": {"i": "0"}}}, {"name": "PartitionedCall/PartitionedCall/depthwise_14", "op": "FusedDepthwiseConv2dNative", "input": ["PartitionedCall/PartitionedCall/Pad_15", "PartitionedCall/PartitionedCall/depthwise_14_weights", "PartitionedCall/PartitionedCall/depthwise_14_bn_offset"], "attr": {"num_args": {"i": "1"}, "fused_ops": {"list": {"s": ["Qmlhc0FkZA==", "UmVsdQ=="]}}, "padding": {"s": "VkFMSUQ="}, "data_format": {"s": "TkhXQw=="}, "dilations": {"list": {"i": ["1", "1", "1", "1"]}}, "strides": {"list": {"i": ["1", "1", "1", "1"]}}, "T": {"type": "DT_FLOAT"}}}, {"name": "PartitionedCall/Reshape/shape", "op": "Pack", "input": ["PartitionedCall/strided_slice_1", "PartitionedCall/Reshape/shape/1", "PartitionedCall/PartitionedCall_1/Mean/reduction_indices"], "attr": {"axis": {"i": "0"}, "T": {"type": "DT_INT32"}, "N": {"i": "3"}}}, {"name": "PartitionedCall/Reshape", "op": "Reshape", "input": ["PartitionedCall/PartitionedCall/resize_5/ResizeBilinear", "PartitionedCall/Reshape/shape"], "attr": {"T": {"type": "DT_FLOAT"}, "Tshape": {"type": "DT_INT32"}}}, {"name": "PartitionedCall/ArgMax", "op": "ArgMax", "input": ["PartitionedCall/Reshape", "PartitionedCall/ArgMax/dimension"], "attr": {"output_type": {"type": "DT_INT32"}, "Tidx": {"type": "DT_INT32"}, "T": {"type": "DT_FLOAT"}}}, {"name": "PartitionedCall/PartitionedCall/Relu_3", "op": "_FusedConv2D", "input": ["PartitionedCall/PartitionedCall/depthwise_14", "PartitionedCall/PartitionedCall/Conv2D_29_weights", "PartitionedCall/PartitionedCall/Conv2D_29_bn_offset"], "device": "/device:CPU:0", "attr": {"fused_ops": {"list": {"s": ["Qmlhc0FkZA==", "UmVsdQ=="]}}, "use_cudnn_on_gpu": {"b": true}, "strides": {"list": {"i": ["1", "1", "1", "1"]}}, "padding": {"s": "VkFMSUQ="}, "num_args": {"i": "1"}, "explicit_paddings": {"list": {}}, "dilations": {"list": {"i": ["1", "1", "1", "1"]}}, "epsilon": {"f": 0.0}, "data_format": {"s": "TkhXQw=="}, "T": {"type": "DT_FLOAT"}}}, {"name": "PartitionedCall/FloorMod", "op": "FloorMod", "input": ["PartitionedCall/ArgMax", "PartitionedCall/FloorMod/y"], "attr": {"T": {"type": "DT_INT32"}}}, {"name": "PartitionedCall/PartitionedCall/Shape_2", "op": "Shape", "input": ["PartitionedCall/PartitionedCall/Relu_3"], "attr": {"T": {"type": "DT_FLOAT"}, "out_type": {"type": "DT_INT32"}}}, {"name": "PartitionedCall/Cast_8", "op": "Cast", "input": ["PartitionedCall/FloorMod"], "attr": {"SrcT": {"type": "DT_INT32"}, "Truncate": {"b": false}, "DstT": {"type": "DT_FLOAT"}}}, {"name": "PartitionedCall/sub_2", "op": "Sub", "input": ["PartitionedCall/ArgMax", "PartitionedCall/FloorMod"], "attr": {"T": {"type": "DT_INT32"}}}, {"name": "PartitionedCall/PartitionedCall/strided_slice_5", "op": "StridedSlice", "input": ["PartitionedCall/PartitionedCall/Shape_2", "PartitionedCall/PartitionedCall_1/strided_slice/stack", "PartitionedCall/PartitionedCall_1/strided_slice/stack_1", "PartitionedCall/PartitionedCall_1/strided_slice/stack"], "attr": {"begin_mask": {"i": "0"}, "Index": {"type": "DT_INT32"}, "T": {"type": "DT_INT32"}, "shrink_axis_mask": {"i": "0"}, "end_mask": {"i": "0"}, "ellipsis_mask": {"i": "0"}, "new_axis_mask": {"i": "0"}}}, {"name": "PartitionedCall/add", "op": "AddV2", "input": ["PartitionedCall/Cast_8", "PartitionedCall/add/y"], "attr": {"T": {"type": "DT_FLOAT"}}}, {"name": "PartitionedCall/truediv_9/Cast", "op": "Cast", "input": ["PartitionedCall/sub_2"], "attr": {"DstT": {"type": "DT_DOUBLE"}, "Truncate": {"b": false}, "SrcT": {"type": "DT_INT32"}}}, {"name": "PartitionedCall/PartitionedCall/Cast_4", "op": "Cast", "input": ["PartitionedCall/PartitionedCall/strided_slice_5"], "attr": {"SrcT": {"type": "DT_INT32"}, "Truncate": {"b": false}, "DstT": {"type": "DT_FLOAT"}}}, {"name": "PartitionedCall/ExpandDims", "op": "ExpandDims", "input": ["PartitionedCall/add", "PartitionedCall/ExpandDims/dim"], "attr": {"Tdim": {"type": "DT_INT32"}, "T": {"type": "DT_FLOAT"}}}, {"name": "PartitionedCall/truediv_9", "op": "Mul", "input": ["ConstantFolding/PartitionedCall/truediv_9_recip", "PartitionedCall/truediv_9/Cast"], "attr": {"T": {"type": "DT_DOUBLE"}}}, {"name": "PartitionedCall/PartitionedCall/mul_2", "op": "Mul", "input": ["PartitionedCall/PartitionedCall/Cast_4", "PartitionedCall/PartitionedCall/strided_slice_6"], "attr": {"T": {"type": "DT_FLOAT"}}}, {"name": "PartitionedCall/mul_6", "op": "Mul", "input": ["PartitionedCall/ExpandDims", "PartitionedCall/strided_slice_2"], "attr": {"T": {"type": "DT_FLOAT"}}}, {"name": "PartitionedCall/Floor", "op": "Floor", "input": ["PartitionedCall/truediv_9"], "attr": {"T": {"type": "DT_DOUBLE"}}}, {"name": "PartitionedCall/PartitionedCall/Cast_5", "op": "Cast", "input": ["PartitionedCall/PartitionedCall/mul_2"], "attr": {"SrcT": {"type": "DT_FLOAT"}, "DstT": {"type": "DT_INT32"}, "Truncate": {"b": false}}}, {"name": "PartitionedCall/Cast_9", "op": "Cast", "input": ["PartitionedCall/Floor"], "attr": {"SrcT": {"type": "DT_DOUBLE"}, "DstT": {"type": "DT_FLOAT"}, "Truncate": {"b": false}}}, {"name": "PartitionedCall/PartitionedCall/resize_2/ResizeBilinear", "op": "ResizeBilinear", "input": ["PartitionedCall/PartitionedCall/Relu_3", "PartitionedCall/PartitionedCall/Cast_5"], "attr": {"T": {"type": "DT_FLOAT"}, "half_pixel_centers": {"b": true}, "align_corners": {"b": false}}}, {"name": "PartitionedCall/add_1", "op": "AddV2", "input": ["PartitionedCall/Cast_9", "PartitionedCall/add/y"], "attr": {"T": {"type": "DT_FLOAT"}}}, {"name": "PartitionedCall/PartitionedCall/Add_10", "op": "Add", "input": ["PartitionedCall/PartitionedCall/Conv2D_30", "PartitionedCall/PartitionedCall/resize_2/ResizeBilinear"], "attr": {"T": {"type": "DT_FLOAT"}}}, {"name": "PartitionedCall/ExpandDims_1", "op": "ExpandDims", "input": ["PartitionedCall/add_1", "PartitionedCall/ExpandDims/dim"], "attr": {"T": {"type": "DT_FLOAT"}, "Tdim": {"type": "DT_INT32"}}}, {"name": "PartitionedCall/PartitionedCall/Pad_16", "op": "Pad", "input": ["PartitionedCall/PartitionedCall/Add_10", "PartitionedCall/PartitionedCall/Const_15"], "attr": {"Tpaddings": {"type": "DT_INT32"}, "T": {"type": "DT_FLOAT"}}}, {"name": "PartitionedCall/mul_7", "op": "Mul", "input": ["PartitionedCall/ExpandDims_1", "PartitionedCall/strided_slice_3"], "attr": {"T": {"type": "DT_FLOAT"}}}, {"name": "PartitionedCall/PartitionedCall/depthwise_15", "op": "FusedDepthwiseConv2dNative", "input": ["PartitionedCall/PartitionedCall/Pad_16", "PartitionedCall/PartitionedCall/depthwise_15_weights", "PartitionedCall/PartitionedCall/depthwise_15_bn_offset"], "attr": {"data_format": {"s": "TkhXQw=="}, "fused_ops": {"list": {"s": ["Qmlhc0FkZA==", "UmVsdQ=="]}}, "T": {"type": "DT_FLOAT"}, "num_args": {"i": "1"}, "strides": {"list": {"i": ["1", "1", "1", "1"]}}, "padding": {"s": "VkFMSUQ="}, "dilations": {"list": {"i": ["1", "1", "1", "1"]}}}}, {"name": "PartitionedCall/concat", "op": "ConcatV2", "input": ["PartitionedCall/mul_6", "PartitionedCall/mul_7", "PartitionedCall/ExpandDims/dim"], "attr": {"Tidx": {"type": "DT_INT32"}, "N": {"i": "2"}, "T": {"type": "DT_FLOAT"}}}, {"name": "Identity_2", "op": "Identity", "input": ["PartitionedCall/concat"], "attr": {"T": {"type": "DT_FLOAT"}}}, {"name": "PartitionedCall/PartitionedCall/Relu_5", "op": "_FusedConv2D", "input": ["PartitionedCall/PartitionedCall/depthwise_15", "PartitionedCall/PartitionedCall/Conv2D_31_weights", "PartitionedCall/PartitionedCall/Conv2D_31_bn_offset"], "device": "/device:CPU:0", "attr": {"dilations": {"list": {"i": ["1", "1", "1", "1"]}}, "data_format": {"s": "TkhXQw=="}, "explicit_paddings": {"list": {}}, "padding": {"s": "VkFMSUQ="}, "use_cudnn_on_gpu": {"b": true}, "T": {"type": "DT_FLOAT"}, "strides": {"list": {"i": ["1", "1", "1", "1"]}}, "num_args": {"i": "1"}, "epsilon": {"f": 0.0}, "fused_ops": {"list": {"s": ["Qmlhc0FkZA==", "UmVsdQ=="]}}}}, {"name": "PartitionedCall/PartitionedCall/Shape_3", "op": "Shape", "input": ["PartitionedCall/PartitionedCall/Relu_5"], "attr": {"out_type": {"type": "DT_INT32"}, "T": {"type": "DT_FLOAT"}}}, {"name": "PartitionedCall/PartitionedCall/strided_slice_7", "op": "StridedSlice", "input": ["PartitionedCall/PartitionedCall/Shape_3", "PartitionedCall/PartitionedCall_1/strided_slice/stack", "PartitionedCall/PartitionedCall_1/strided_slice/stack_1", "PartitionedCall/PartitionedCall_1/strided_slice/stack"], "attr": {"end_mask": {"i": "0"}, "ellipsis_mask": {"i": "0"}, "shrink_axis_mask": {"i": "0"}, "T": {"type": "DT_INT32"}, "Index": {"type": "DT_INT32"}, "new_axis_mask": {"i": "0"}, "begin_mask": {"i": "0"}}}, {"name": "PartitionedCall/PartitionedCall/Cast_6", "op": "Cast", "input": ["PartitionedCall/PartitionedCall/strided_slice_7"], "attr": {"DstT": {"type": "DT_FLOAT"}, "Truncate": {"b": false}, "SrcT": {"type": "DT_INT32"}}}, {"name": "PartitionedCall/PartitionedCall/mul_3", "op": "Mul", "input": ["PartitionedCall/PartitionedCall/Cast_6", "PartitionedCall/PartitionedCall/strided_slice_6"], "attr": {"T": {"type": "DT_FLOAT"}}}, {"name": "PartitionedCall/PartitionedCall/Cast_7", "op": "Cast", "input": ["PartitionedCall/PartitionedCall/mul_3"], "attr": {"Truncate": {"b": false}, "DstT": {"type": "DT_INT32"}, "SrcT": {"type": "DT_FLOAT"}}}, {"name": "PartitionedCall/PartitionedCall/resize_3/ResizeBilinear", "op": "ResizeBilinear", "input": ["PartitionedCall/PartitionedCall/Relu_5", "PartitionedCall/PartitionedCall/Cast_7"], "attr": {"half_pixel_centers": {"b": true}, "T": {"type": "DT_FLOAT"}, "align_corners": {"b": false}}}, {"name": "PartitionedCall/PartitionedCall/Pad_17", "op": "Pad", "input": ["PartitionedCall/PartitionedCall/resize_3/ResizeBilinear", "PartitionedCall/PartitionedCall/Const_15"], "attr": {"Tpaddings": {"type": "DT_INT32"}, "T": {"type": "DT_FLOAT"}}}, {"name": "PartitionedCall/PartitionedCall/depthwise_16", "op": "FusedDepthwiseConv2dNative", "input": ["PartitionedCall/PartitionedCall/Pad_17", "PartitionedCall/PartitionedCall/depthwise_16_weights", "PartitionedCall/PartitionedCall/depthwise_16_bn_offset"], "attr": {"strides": {"list": {"i": ["1", "1", "1", "1"]}}, "num_args": {"i": "1"}, "dilations": {"list": {"i": ["1", "1", "1", "1"]}}, "padding": {"s": "VkFMSUQ="}, "fused_ops": {"list": {"s": ["Qmlhc0FkZA==", "UmVsdQ=="]}}, "T": {"type": "DT_FLOAT"}, "data_format": {"s": "TkhXQw=="}}}, {"name": "PartitionedCall/PartitionedCall/Relu_7", "op": "_FusedConv2D", "input": ["PartitionedCall/PartitionedCall/depthwise_16", "PartitionedCall/PartitionedCall/Conv2D_32_weights", "PartitionedCall/PartitionedCall/Conv2D_32_bn_offset"], "device": "/device:CPU:0", "attr": {"num_args": {"i": "1"}, "T": {"type": "DT_FLOAT"}, "use_cudnn_on_gpu": {"b": true}, "strides": {"list": {"i": ["1", "1", "1", "1"]}}, "data_format": {"s": "TkhXQw=="}, "epsilon": {"f": 0.0}, "dilations": {"list": {"i": ["1", "1", "1", "1"]}}, "explicit_paddings": {"list": {}}, "fused_ops": {"list": {"s": ["Qmlhc0FkZA==", "UmVsdQ=="]}}, "padding": {"s": "VkFMSUQ="}}}, {"name": "PartitionedCall/PartitionedCall/Pad_18", "op": "Pad", "input": ["PartitionedCall/PartitionedCall/Relu_7", "PartitionedCall/PartitionedCall/Const_15"], "attr": {"Tpaddings": {"type": "DT_INT32"}, "T": {"type": "DT_FLOAT"}}}, {"name": "PartitionedCall/PartitionedCall/depthwise_17", "op": "FusedDepthwiseConv2dNative", "input": ["PartitionedCall/PartitionedCall/Pad_18", "PartitionedCall/PartitionedCall/depthwise_17_weights", "PartitionedCall/PartitionedCall/depthwise_17_bn_offset"], "attr": {"strides": {"list": {"i": ["1", "1", "1", "1"]}}, "num_args": {"i": "1"}, "padding": {"s": "VkFMSUQ="}, "fused_ops": {"list": {"s": ["Qmlhc0FkZA==", "UmVsdQ=="]}}, "T": {"type": "DT_FLOAT"}, "data_format": {"s": "TkhXQw=="}, "dilations": {"list": {"i": ["1", "1", "1", "1"]}}}}, {"name": "PartitionedCall/PartitionedCall/Relu_9", "op": "_FusedConv2D", "input": ["PartitionedCall/PartitionedCall/depthwise_17", "PartitionedCall/PartitionedCall/Conv2D_33_weights", "PartitionedCall/PartitionedCall/Conv2D_33_bn_offset"], "device": "/device:CPU:0", "attr": {"strides": {"list": {"i": ["1", "1", "1", "1"]}}, "T": {"type": "DT_FLOAT"}, "data_format": {"s": "TkhXQw=="}, "epsilon": {"f": 0.0}, "dilations": {"list": {"i": ["1", "1", "1", "1"]}}, "padding": {"s": "VkFMSUQ="}, "num_args": {"i": "1"}, "explicit_paddings": {"list": {}}, "use_cudnn_on_gpu": {"b": true}, "fused_ops": {"list": {"s": ["Qmlhc0FkZA==", "UmVsdQ=="]}}}}, {"name": "PartitionedCall/PartitionedCall/Conv2D_34", "op": "Conv2D", "input": ["PartitionedCall/PartitionedCall/Relu_9", "PartitionedCall/PartitionedCall/Conv2D_34/filter"], "device": "/device:CPU:0", "attr": {"use_cudnn_on_gpu": {"b": true}, "padding": {"s": "VkFMSUQ="}, "data_format": {"s": "TkhXQw=="}, "T": {"type": "DT_FLOAT"}, "strides": {"list": {"i": ["1", "1", "1", "1"]}}, "dilations": {"list": {"i": ["1", "1", "1", "1"]}}, "explicit_paddings": {"list": {}}}}, {"name": "PartitionedCall/PartitionedCall/add_11", "op": "AddV2", "input": ["PartitionedCall/PartitionedCall/Conv2D_34", "PartitionedCall/PartitionedCall/add_11/y"], "attr": {"T": {"type": "DT_FLOAT"}}}, {"name": "PartitionedCall/resize_1/ResizeBilinear", "op": "ResizeBilinear", "input": ["PartitionedCall/PartitionedCall/add_11", "PartitionedCall/strided_slice"], "attr": {"half_pixel_centers": {"b": true}, "align_corners": {"b": false}, "T": {"type": "DT_FLOAT"}}}, {"name": "PartitionedCall/truediv_7", "op": "Mul", "input": ["ConstantFolding/PartitionedCall/truediv_8_recip", "PartitionedCall/resize_1/ResizeBilinear"], "attr": {"T": {"type": "DT_FLOAT"}}}, {"name": "PartitionedCall/PartitionedCall_1/Shape", "op": "Shape", "input": ["PartitionedCall/resize_1/ResizeBilinear"], "attr": {"out_type": {"type": "DT_INT32"}, "T": {"type": "DT_FLOAT"}}}, {"name": "PartitionedCall/Sigmoid", "op": "Sigmoid", "input": ["PartitionedCall/truediv_7"], "attr": {"T": {"type": "DT_FLOAT"}}}, {"name": "PartitionedCall/PartitionedCall_1/strided_slice", "op": "StridedSlice", "input": ["PartitionedCall/PartitionedCall_1/Shape", "PartitionedCall/PartitionedCall_1/strided_slice/stack", "PartitionedCall/PartitionedCall_1/strided_slice/stack_1", "PartitionedCall/PartitionedCall_1/strided_slice/stack"], "attr": {"Index": {"type": "DT_INT32"}, "end_mask": {"i": "0"}, "T": {"type": "DT_INT32"}, "ellipsis_mask": {"i": "0"}, "begin_mask": {"i": "0"}, "shrink_axis_mask": {"i": "0"}, "new_axis_mask": {"i": "0"}}}, {"name": "PartitionedCall/mul_4", "op": "Mul", "input": ["PartitionedCall/Sigmoid", "PartitionedCall/mul_5/y"], "attr": {"T": {"type": "DT_FLOAT"}}}, {"name": "PartitionedCall/PartitionedCall_1/floordiv", "op": "FloorDiv", "input": ["PartitionedCall/PartitionedCall_1/strided_slice", "PartitionedCall/PartitionedCall_1/floordiv/y"], "attr": {"T": {"type": "DT_INT32"}}}, {"name": "Identity_1", "op": "Identity", "input": ["PartitionedCall/mul_4"], "attr": {"T": {"type": "DT_FLOAT"}}}, {"name": "PartitionedCall/PartitionedCall_1/resize/ResizeBilinear", "op": "ResizeBilinear", "input": ["PartitionedCall/PartitionedCall_1/Mean", "PartitionedCall/PartitionedCall_1/floordiv"], "attr": {"T": {"type": "DT_FLOAT"}, "align_corners": {"b": false}, "half_pixel_centers": {"b": true}}}, {"name": "PartitionedCall/PartitionedCall_1/resize_1/ResizeBilinear", "op": "ResizeBilinear", "input": ["PartitionedCall/resize_1/ResizeBilinear", "PartitionedCall/PartitionedCall_1/floordiv"], "attr": {"half_pixel_centers": {"b": true}, "T": {"type": "DT_FLOAT"}, "align_corners": {"b": false}}}, {"name": "PartitionedCall/PartitionedCall_1/pow", "op": "Square", "input": ["PartitionedCall/PartitionedCall_1/resize/ResizeBilinear"], "attr": {"T": {"type": "DT_FLOAT"}}}, {"name": "PartitionedCall/PartitionedCall_1/MirrorPad", "op": "MirrorPad", "input": ["PartitionedCall/PartitionedCall_1/resize/ResizeBilinear", "PartitionedCall/PartitionedCall_1/MirrorPad_4/paddings"], "attr": {"T": {"type": "DT_FLOAT"}, "Tpaddings": {"type": "DT_INT32"}, "mode": {"s": "UkVGTEVDVA=="}}}, {"name": "PartitionedCall/PartitionedCall_1/MirrorPad_1", "op": "MirrorPad", "input": ["PartitionedCall/PartitionedCall_1/resize_1/ResizeBilinear", "PartitionedCall/PartitionedCall_1/MirrorPad_4/paddings"], "attr": {"mode": {"s": "UkVGTEVDVA=="}, "T": {"type": "DT_FLOAT"}, "Tpaddings": {"type": "DT_INT32"}}}, {"name": "PartitionedCall/PartitionedCall_1/mul", "op": "Mul", "input": ["PartitionedCall/PartitionedCall_1/resize/ResizeBilinear", "PartitionedCall/PartitionedCall_1/resize_1/ResizeBilinear"], "attr": {"T": {"type": "DT_FLOAT"}}}, {"name": "PartitionedCall/PartitionedCall_1/MirrorPad_2", "op": "MirrorPad", "input": ["PartitionedCall/PartitionedCall_1/pow", "PartitionedCall/PartitionedCall_1/MirrorPad_4/paddings"], "attr": {"mode": {"s": "UkVGTEVDVA=="}, "Tpaddings": {"type": "DT_INT32"}, "T": {"type": "DT_FLOAT"}}}, {"name": "PartitionedCall/PartitionedCall_1/Conv2D", "op": "Conv2D", "input": ["PartitionedCall/PartitionedCall_1/MirrorPad", "PartitionedCall/PartitionedCall_1/Conv2D_4/filter"], "device": "/device:CPU:0", "attr": {"strides": {"list": {"i": ["1", "1", "1", "1"]}}, "padding": {"s": "VkFMSUQ="}, "T": {"type": "DT_FLOAT"}, "dilations": {"list": {"i": ["1", "1", "1", "1"]}}, "data_format": {"s": "TkhXQw=="}, "use_cudnn_on_gpu": {"b": true}, "explicit_paddings": {"list": {}}}}, {"name": "PartitionedCall/PartitionedCall_1/Conv2D_1", "op": "Conv2D", "input": ["PartitionedCall/PartitionedCall_1/MirrorPad_1", "PartitionedCall/PartitionedCall_1/Conv2D_4/filter"], "device": "/device:CPU:0", "attr": {"strides": {"list": {"i": ["1", "1", "1", "1"]}}, "use_cudnn_on_gpu": {"b": true}, "T": {"type": "DT_FLOAT"}, "dilations": {"list": {"i": ["1", "1", "1", "1"]}}, "data_format": {"s": "TkhXQw=="}, "explicit_paddings": {"list": {}}, "padding": {"s": "VkFMSUQ="}}}, {"name": "PartitionedCall/PartitionedCall_1/MirrorPad_3", "op": "MirrorPad", "input": ["PartitionedCall/PartitionedCall_1/mul", "PartitionedCall/PartitionedCall_1/MirrorPad_4/paddings"], "attr": {"Tpaddings": {"type": "DT_INT32"}, "mode": {"s": "UkVGTEVDVA=="}, "T": {"type": "DT_FLOAT"}}}, {"name": "PartitionedCall/PartitionedCall_1/Conv2D_2", "op": "Conv2D", "input": ["PartitionedCall/PartitionedCall_1/MirrorPad_2", "PartitionedCall/PartitionedCall_1/Conv2D_4/filter"], "device": "/device:CPU:0", "attr": {"strides": {"list": {"i": ["1", "1", "1", "1"]}}, "explicit_paddings": {"list": {}}, "padding": {"s": "VkFMSUQ="}, "dilations": {"list": {"i": ["1", "1", "1", "1"]}}, "use_cudnn_on_gpu": {"b": true}, "data_format": {"s": "TkhXQw=="}, "T": {"type": "DT_FLOAT"}}}, {"name": "PartitionedCall/PartitionedCall_1/pow_1", "op": "Square", "input": ["PartitionedCall/PartitionedCall_1/Conv2D"], "attr": {"T": {"type": "DT_FLOAT"}}}, {"name": "PartitionedCall/PartitionedCall_1/mul_1", "op": "Mul", "input": ["PartitionedCall/PartitionedCall_1/Conv2D", "PartitionedCall/PartitionedCall_1/Conv2D_1"], "attr": {"T": {"type": "DT_FLOAT"}}}, {"name": "PartitionedCall/PartitionedCall_1/Conv2D_3", "op": "Conv2D", "input": ["PartitionedCall/PartitionedCall_1/MirrorPad_3", "PartitionedCall/PartitionedCall_1/Conv2D_4/filter"], "device": "/device:CPU:0", "attr": {"use_cudnn_on_gpu": {"b": true}, "dilations": {"list": {"i": ["1", "1", "1", "1"]}}, "T": {"type": "DT_FLOAT"}, "explicit_paddings": {"list": {}}, "data_format": {"s": "TkhXQw=="}, "strides": {"list": {"i": ["1", "1", "1", "1"]}}, "padding": {"s": "VkFMSUQ="}}}, {"name": "PartitionedCall/PartitionedCall_1/sub", "op": "Sub", "input": ["PartitionedCall/PartitionedCall_1/Conv2D_2", "PartitionedCall/PartitionedCall_1/pow_1"], "attr": {"T": {"type": "DT_FLOAT"}}}, {"name": "PartitionedCall/PartitionedCall_1/sub_1", "op": "Sub", "input": ["PartitionedCall/PartitionedCall_1/Conv2D_3", "PartitionedCall/PartitionedCall_1/mul_1"], "attr": {"T": {"type": "DT_FLOAT"}}}, {"name": "PartitionedCall/PartitionedCall_1/clip_by_value/Minimum", "op": "Minimum", "input": ["PartitionedCall/PartitionedCall_1/sub", "PartitionedCall/PartitionedCall_1/clip_by_value/Minimum/y"], "attr": {"T": {"type": "DT_FLOAT"}}}, {"name": "PartitionedCall/PartitionedCall_1/clip_by_value", "op": "Maximum", "input": ["PartitionedCall/PartitionedCall_1/clip_by_value/Minimum", "PartitionedCall/PartitionedCall_1/clip_by_value/y"], "attr": {"T": {"type": "DT_FLOAT"}}}, {"name": "PartitionedCall/PartitionedCall_1/add", "op": "AddV2", "input": ["PartitionedCall/PartitionedCall_1/add/y", "PartitionedCall/PartitionedCall_1/clip_by_value"], "attr": {"T": {"type": "DT_FLOAT"}}}, {"name": "PartitionedCall/PartitionedCall_1/truediv", "op": "RealDiv", "input": ["PartitionedCall/PartitionedCall_1/sub_1", "PartitionedCall/PartitionedCall_1/add"], "attr": {"T": {"type": "DT_FLOAT"}}}, {"name": "PartitionedCall/PartitionedCall_1/MirrorPad_4", "op": "MirrorPad", "input": ["PartitionedCall/PartitionedCall_1/truediv", "PartitionedCall/PartitionedCall_1/MirrorPad_4/paddings"], "attr": {"Tpaddings": {"type": "DT_INT32"}, "T": {"type": "DT_FLOAT"}, "mode": {"s": "UkVGTEVDVA=="}}}, {"name": "PartitionedCall/PartitionedCall_1/mul_2", "op": "Mul", "input": ["PartitionedCall/PartitionedCall_1/Conv2D", "PartitionedCall/PartitionedCall_1/truediv"], "attr": {"T": {"type": "DT_FLOAT"}}}, {"name": "PartitionedCall/PartitionedCall_1/Conv2D_4", "op": "Conv2D", "input": ["PartitionedCall/PartitionedCall_1/MirrorPad_4", "PartitionedCall/PartitionedCall_1/Conv2D_4/filter"], "device": "/device:CPU:0", "attr": {"use_cudnn_on_gpu": {"b": true}, "T": {"type": "DT_FLOAT"}, "data_format": {"s": "TkhXQw=="}, "padding": {"s": "VkFMSUQ="}, "dilations": {"list": {"i": ["1", "1", "1", "1"]}}, "explicit_paddings": {"list": {}}, "strides": {"list": {"i": ["1", "1", "1", "1"]}}}}, {"name": "PartitionedCall/PartitionedCall_1/sub_2", "op": "Sub", "input": ["PartitionedCall/PartitionedCall_1/Conv2D_1", "PartitionedCall/PartitionedCall_1/mul_2"], "attr": {"T": {"type": "DT_FLOAT"}}}, {"name": "PartitionedCall/PartitionedCall_1/resize_2/ResizeBilinear", "op": "ResizeBilinear", "input": ["PartitionedCall/PartitionedCall_1/Conv2D_4", "PartitionedCall/PartitionedCall_1/strided_slice"], "attr": {"T": {"type": "DT_FLOAT"}, "align_corners": {"b": false}, "half_pixel_centers": {"b": true}}}, {"name": "PartitionedCall/PartitionedCall_1/MirrorPad_5", "op": "MirrorPad", "input": ["PartitionedCall/PartitionedCall_1/sub_2", "PartitionedCall/PartitionedCall_1/MirrorPad_4/paddings"], "attr": {"T": {"type": "DT_FLOAT"}, "mode": {"s": "UkVGTEVDVA=="}, "Tpaddings": {"type": "DT_INT32"}}}, {"name": "PartitionedCall/PartitionedCall_1/mul_3", "op": "Mul", "input": ["PartitionedCall/PartitionedCall_1/Mean", "PartitionedCall/PartitionedCall_1/resize_2/ResizeBilinear"], "attr": {"T": {"type": "DT_FLOAT"}}}, {"name": "PartitionedCall/PartitionedCall_1/Conv2D_5", "op": "Conv2D", "input": ["PartitionedCall/PartitionedCall_1/MirrorPad_5", "PartitionedCall/PartitionedCall_1/Conv2D_4/filter"], "device": "/device:CPU:0", "attr": {"use_cudnn_on_gpu": {"b": true}, "data_format": {"s": "TkhXQw=="}, "T": {"type": "DT_FLOAT"}, "padding": {"s": "VkFMSUQ="}, "strides": {"list": {"i": ["1", "1", "1", "1"]}}, "dilations": {"list": {"i": ["1", "1", "1", "1"]}}, "explicit_paddings": {"list": {}}}}, {"name": "PartitionedCall/PartitionedCall_1/resize_3/ResizeBilinear", "op": "ResizeBilinear", "input": ["PartitionedCall/PartitionedCall_1/Conv2D_5", "PartitionedCall/PartitionedCall_1/strided_slice"], "attr": {"half_pixel_centers": {"b": true}, "T": {"type": "DT_FLOAT"}, "align_corners": {"b": false}}}, {"name": "PartitionedCall/PartitionedCall_1/add_1", "op": "AddV2", "input": ["PartitionedCall/PartitionedCall_1/mul_3", "PartitionedCall/PartitionedCall_1/resize_3/ResizeBilinear"], "attr": {"T": {"type": "DT_FLOAT"}}}, {"name": "PartitionedCall/truediv_8", "op": "Mul", "input": ["ConstantFolding/PartitionedCall/truediv_8_recip", "PartitionedCall/PartitionedCall_1/add_1"], "attr": {"T": {"type": "DT_FLOAT"}}}, {"name": "PartitionedCall/Sigmoid_1", "op": "Sigmoid", "input": ["PartitionedCall/truediv_8"], "attr": {"T": {"type": "DT_FLOAT"}}}, {"name": "PartitionedCall/mul_5", "op": "Mul", "input": ["PartitionedCall/Sigmoid_1", "PartitionedCall/mul_5/y"], "attr": {"T": {"type": "DT_FLOAT"}}}, {"name": "Identity", "op": "Identity", "input": ["PartitionedCall/mul_5"], "attr": {"T": {"type": "DT_FLOAT"}}}], "library": {}, "versions": {"producer": 175}}, "weightsManifest": [{"paths": ["group1-shard1of1.bin"], "weights": [{"name": "PartitionedCall/PartitionedCall_1/add/y", "shape": [], "dtype": "float32", "quantization": {"dtype": "float16", "original_dtype": "float32"}}, {"name": "ConstantFolding/PartitionedCall/truediv_6_recip", "shape": [], "dtype": "float32", "quantization": {"dtype": "float16", "original_dtype": "float32"}}, {"name": "PartitionedCall/sub_1/y", "shape": [], "dtype": "float32", "quantization": {"dtype": "float16", "original_dtype": "float32"}}, {"name": "PartitionedCall/PartitionedCall_1/floordiv/y", "shape": [], "dtype": "int32"}, {"name": "PartitionedCall/PartitionedCall_1/clip_by_value/Minimum/y", "shape": [], "dtype": "float32", "quantization": {"dtype": "float16", "original_dtype": "float32"}}, {"name": "PartitionedCall/PartitionedCall_1/MirrorPad_4/paddings", "shape": [4, 2], "dtype": "int32"}, {"name": "PartitionedCall/PartitionedCall_1/Conv2D_4/filter", "shape": [5, 5, 1, 1], "dtype": "float32", "quantization": {"dtype": "float16", "original_dtype": "float32"}}, {"name": "ConstantFolding/PartitionedCall/truediv_8_recip", "shape": [], "dtype": "float32", "quantization": {"dtype": "float16", "original_dtype": "float32"}}, {"name": "PartitionedCall/PartitionedCall/Conv2D_30/filter", "shape": [1, 1, 16, 24], "dtype": "float32", "quantization": {"dtype": "float16", "original_dtype": "float32"}}, {"name": "PartitionedCall/PartitionedCall/Conv2D_28/filter", "shape": [1, 1, 24, 32], "dtype": "float32", "quantization": {"dtype": "float16", "original_dtype": "float32"}}, {"name": "PartitionedCall/PartitionedCall/Conv2D_26/filter", "shape": [1, 1, 32, 96], "dtype": "float32", "quantization": {"dtype": "float16", "original_dtype": "float32"}}, {"name": "PartitionedCall/PartitionedCall/Conv2D_34/filter", "shape": [1, 1, 16, 1], "dtype": "float32", "quantization": {"dtype": "float16", "original_dtype": "float32"}}, {"name": "PartitionedCall/PartitionedCall/add_11/y", "shape": [1], "dtype": "float32", "quantization": {"dtype": "float16", "original_dtype": "float32"}}, {"name": "PartitionedCall/mul_5/y", "shape": [], "dtype": "float32", "quantization": {"dtype": "float16", "original_dtype": "float32"}}, {"name": "PartitionedCall/strided_slice_2/stack_1", "shape": [1], "dtype": "int32"}, {"name": "ConstantFolding/PartitionedCall/truediv_5_recip", "shape": [1, 1, 1, 3], "dtype": "float32", "quantization": {"dtype": "float16", "original_dtype": "float32"}}, {"name": "ConstantFolding/PartitionedCall/truediv_4_recip", "shape": [], "dtype": "float32", "quantization": {"dtype": "float16", "original_dtype": "float32"}}, {"name": "PartitionedCall/Cast", "shape": [], "dtype": "float32", "quantization": {"dtype": "float16", "original_dtype": "float32"}}, {"name": "ConstantFolding/PartitionedCall/truediv_2_recip", "shape": [], "dtype": "float32", "quantization": {"dtype": "float16", "original_dtype": "float32"}}, {"name": "PartitionedCall/mul_1/y", "shape": [], "dtype": "float32", "quantization": {"dtype": "float16", "original_dtype": "float32"}}, {"name": "PartitionedCall/Sub/y", "shape": [1, 1, 1, 3], "dtype": "float32", "quantization": {"dtype": "float16", "original_dtype": "float32"}}, {"name": "PartitionedCall/PartitionedCall/clip_by_value/Minimum/y", "shape": [], "dtype": "float32", "quantization": {"dtype": "float16", "original_dtype": "float32"}}, {"name": "PartitionedCall/PartitionedCall_1/clip_by_value/y", "shape": [], "dtype": "float32", "quantization": {"dtype": "float16", "original_dtype": "float32"}}, {"name": "PartitionedCall/PartitionedCall/Conv2D_35/filter", "shape": [1, 1, 96, 48], "dtype": "float32", "quantization": {"dtype": "float16", "original_dtype": "float32"}}, {"name": "PartitionedCall/PartitionedCall/add_12/y", "shape": [48], "dtype": "float32", "quantization": {"dtype": "float16", "original_dtype": "float32"}}, {"name": "PartitionedCall/PartitionedCall/Const_15", "shape": [4, 2], "dtype": "int32"}, {"name": "PartitionedCall/PartitionedCall/Conv2D_37/filter", "shape": [1, 1, 48, 3], "dtype": "float32", "quantization": {"dtype": "float16", "original_dtype": "float32"}}, {"name": "PartitionedCall/PartitionedCall/add_13/y", "shape": [3], "dtype": "float32", "quantization": {"dtype": "float16", "original_dtype": "float32"}}, {"name": "PartitionedCall/PartitionedCall/strided_slice_6", "shape": [2], "dtype": "float32", "quantization": {"dtype": "float16", "original_dtype": "float32"}}, {"name": "PartitionedCall/Reshape/shape/1", "shape": [], "dtype": "int32"}, {"name": "PartitionedCall/PartitionedCall_1/Mean/reduction_indices", "shape": [], "dtype": "int32"}, {"name": "PartitionedCall/ArgMax/dimension", "shape": [], "dtype": "int32"}, {"name": "PartitionedCall/FloorMod/y", "shape": [], "dtype": "int32"}, {"name": "PartitionedCall/add/y", "shape": [], "dtype": "float32", "quantization": {"dtype": "float16", "original_dtype": "float32"}}, {"name": "ConstantFolding/PartitionedCall/truediv_9_recip", "shape": [], "dtype": "float32", "quantization": {"dtype": "float16", "original_dtype": "float32"}}, {"name": "PartitionedCall/PartitionedCall_1/strided_slice/stack_1", "shape": [1], "dtype": "int32"}, {"name": "PartitionedCall/strided_slice_1/stack", "shape": [1], "dtype": "int32"}, {"name": "PartitionedCall/PartitionedCall_1/strided_slice/stack", "shape": [1], "dtype": "int32"}, {"name": "PartitionedCall/ExpandDims/dim", "shape": [], "dtype": "int32"}, {"name": "PartitionedCall/PartitionedCall/Conv2D_weights", "shape": [3, 3, 3, 32], "dtype": "float32", "quantization": {"dtype": "float16", "original_dtype": "float32"}}, {"name": "PartitionedCall/PartitionedCall/Conv2D_bn_offset", "shape": [32], "dtype": "float32", "quantization": {"dtype": "float16", "original_dtype": "float32"}}, {"name": "PartitionedCall/PartitionedCall/depthwise_weights", "shape": [3, 3, 32, 1], "dtype": "float32", "quantization": {"dtype": "float16", "original_dtype": "float32"}}, {"name": "PartitionedCall/PartitionedCall/depthwise_bn_offset", "shape": [32], "dtype": "float32", "quantization": {"dtype": "float16", "original_dtype": "float32"}}, {"name": "PartitionedCall/PartitionedCall/Conv2D_1_weights", "shape": [1, 1, 32, 16], "dtype": "float32", "quantization": {"dtype": "float16", "original_dtype": "float32"}}, {"name": "PartitionedCall/PartitionedCall/Conv2D_1_bn_offset", "shape": [16], "dtype": "float32", "quantization": {"dtype": "float16", "original_dtype": "float32"}}, {"name": "PartitionedCall/PartitionedCall/Conv2D_2_weights", "shape": [1, 1, 16, 96], "dtype": "float32", "quantization": {"dtype": "float16", "original_dtype": "float32"}}, {"name": "PartitionedCall/PartitionedCall/Conv2D_2_bn_offset", "shape": [96], "dtype": "float32", "quantization": {"dtype": "float16", "original_dtype": "float32"}}, {"name": "PartitionedCall/PartitionedCall/depthwise_1_weights", "shape": [3, 3, 96, 1], "dtype": "float32", "quantization": {"dtype": "float16", "original_dtype": "float32"}}, {"name": "PartitionedCall/PartitionedCall/depthwise_1_bn_offset", "shape": [96], "dtype": "float32", "quantization": {"dtype": "float16", "original_dtype": "float32"}}, {"name": "PartitionedCall/PartitionedCall/Conv2D_3_weights", "shape": [1, 1, 96, 24], "dtype": "float32", "quantization": {"dtype": "float16", "original_dtype": "float32"}}, {"name": "PartitionedCall/PartitionedCall/Conv2D_3_bn_offset", "shape": [24], "dtype": "float32", "quantization": {"dtype": "float16", "original_dtype": "float32"}}, {"name": "PartitionedCall/PartitionedCall/Conv2D_4_weights", "shape": [1, 1, 24, 144], "dtype": "float32", "quantization": {"dtype": "float16", "original_dtype": "float32"}}, {"name": "PartitionedCall/PartitionedCall/Conv2D_4_bn_offset", "shape": [144], "dtype": "float32", "quantization": {"dtype": "float16", "original_dtype": "float32"}}, {"name": "PartitionedCall/PartitionedCall/depthwise_2_weights", "shape": [3, 3, 144, 1], "dtype": "float32", "quantization": {"dtype": "float16", "original_dtype": "float32"}}, {"name": "PartitionedCall/PartitionedCall/depthwise_2_bn_offset", "shape": [144], "dtype": "float32", "quantization": {"dtype": "float16", "original_dtype": "float32"}}, {"name": "PartitionedCall/PartitionedCall/Conv2D_5_weights", "shape": [1, 1, 144, 24], "dtype": "float32", "quantization": {"dtype": "float16", "original_dtype": "float32"}}, {"name": "PartitionedCall/PartitionedCall/Conv2D_5_bn_offset", "shape": [24], "dtype": "float32", "quantization": {"dtype": "float16", "original_dtype": "float32"}}, {"name": "PartitionedCall/PartitionedCall/Conv2D_6_weights", "shape": [1, 1, 24, 144], "dtype": "float32", "quantization": {"dtype": "float16", "original_dtype": "float32"}}, {"name": "PartitionedCall/PartitionedCall/Conv2D_6_bn_offset", "shape": [144], "dtype": "float32", "quantization": {"dtype": "float16", "original_dtype": "float32"}}, {"name": "PartitionedCall/PartitionedCall/depthwise_3_weights", "shape": [3, 3, 144, 1], "dtype": "float32", "quantization": {"dtype": "float16", "original_dtype": "float32"}}, {"name": "PartitionedCall/PartitionedCall/depthwise_3_bn_offset", "shape": [144], "dtype": "float32", "quantization": {"dtype": "float16", "original_dtype": "float32"}}, {"name": "PartitionedCall/PartitionedCall/Conv2D_7_weights", "shape": [1, 1, 144, 32], "dtype": "float32", "quantization": {"dtype": "float16", "original_dtype": "float32"}}, {"name": "PartitionedCall/PartitionedCall/Conv2D_7_bn_offset", "shape": [32], "dtype": "float32", "quantization": {"dtype": "float16", "original_dtype": "float32"}}, {"name": "PartitionedCall/PartitionedCall/Conv2D_8_weights", "shape": [1, 1, 32, 192], "dtype": "float32", "quantization": {"dtype": "float16", "original_dtype": "float32"}}, {"name": "PartitionedCall/PartitionedCall/Conv2D_8_bn_offset", "shape": [192], "dtype": "float32", "quantization": {"dtype": "float16", "original_dtype": "float32"}}, {"name": "PartitionedCall/PartitionedCall/depthwise_4_weights", "shape": [3, 3, 192, 1], "dtype": "float32", "quantization": {"dtype": "float16", "original_dtype": "float32"}}, {"name": "PartitionedCall/PartitionedCall/depthwise_4_bn_offset", "shape": [192], "dtype": "float32", "quantization": {"dtype": "float16", "original_dtype": "float32"}}, {"name": "PartitionedCall/PartitionedCall/Conv2D_9_weights", "shape": [1, 1, 192, 32], "dtype": "float32", "quantization": {"dtype": "float16", "original_dtype": "float32"}}, {"name": "PartitionedCall/PartitionedCall/Conv2D_9_bn_offset", "shape": [32], "dtype": "float32", "quantization": {"dtype": "float16", "original_dtype": "float32"}}, {"name": "PartitionedCall/PartitionedCall/Conv2D_10_weights", "shape": [1, 1, 32, 192], "dtype": "float32", "quantization": {"dtype": "float16", "original_dtype": "float32"}}, {"name": "PartitionedCall/PartitionedCall/Conv2D_10_bn_offset", "shape": [192], "dtype": "float32", "quantization": {"dtype": "float16", "original_dtype": "float32"}}, {"name": "PartitionedCall/PartitionedCall/depthwise_5_weights", "shape": [3, 3, 192, 1], "dtype": "float32", "quantization": {"dtype": "float16", "original_dtype": "float32"}}, {"name": "PartitionedCall/PartitionedCall/depthwise_5_bn_offset", "shape": [192], "dtype": "float32", "quantization": {"dtype": "float16", "original_dtype": "float32"}}, {"name": "PartitionedCall/PartitionedCall/Conv2D_11_weights", "shape": [1, 1, 192, 32], "dtype": "float32", "quantization": {"dtype": "float16", "original_dtype": "float32"}}, {"name": "PartitionedCall/PartitionedCall/Conv2D_11_bn_offset", "shape": [32], "dtype": "float32", "quantization": {"dtype": "float16", "original_dtype": "float32"}}, {"name": "PartitionedCall/PartitionedCall/Conv2D_12_weights", "shape": [1, 1, 32, 192], "dtype": "float32", "quantization": {"dtype": "float16", "original_dtype": "float32"}}, {"name": "PartitionedCall/PartitionedCall/Conv2D_12_bn_offset", "shape": [192], "dtype": "float32", "quantization": {"dtype": "float16", "original_dtype": "float32"}}, {"name": "PartitionedCall/PartitionedCall/depthwise_6_weights", "shape": [3, 3, 192, 1], "dtype": "float32", "quantization": {"dtype": "float16", "original_dtype": "float32"}}, {"name": "PartitionedCall/PartitionedCall/depthwise_6_bn_offset", "shape": [192], "dtype": "float32", "quantization": {"dtype": "float16", "original_dtype": "float32"}}, {"name": "PartitionedCall/PartitionedCall/Conv2D_13_weights", "shape": [1, 1, 192, 64], "dtype": "float32", "quantization": {"dtype": "float16", "original_dtype": "float32"}}, {"name": "PartitionedCall/PartitionedCall/Conv2D_13_bn_offset", "shape": [64], "dtype": "float32", "quantization": {"dtype": "float16", "original_dtype": "float32"}}, {"name": "PartitionedCall/PartitionedCall/Conv2D_14_weights", "shape": [1, 1, 64, 384], "dtype": "float32", "quantization": {"dtype": "float16", "original_dtype": "float32"}}, {"name": "PartitionedCall/PartitionedCall/Conv2D_14_bn_offset", "shape": [384], "dtype": "float32", "quantization": {"dtype": "float16", "original_dtype": "float32"}}, {"name": "PartitionedCall/PartitionedCall/depthwise_7_weights", "shape": [3, 3, 384, 1], "dtype": "float32", "quantization": {"dtype": "float16", "original_dtype": "float32"}}, {"name": "PartitionedCall/PartitionedCall/depthwise_7_bn_offset", "shape": [384], "dtype": "float32", "quantization": {"dtype": "float16", "original_dtype": "float32"}}, {"name": "PartitionedCall/PartitionedCall/Conv2D_15_weights", "shape": [1, 1, 384, 64], "dtype": "float32", "quantization": {"dtype": "float16", "original_dtype": "float32"}}, {"name": "PartitionedCall/PartitionedCall/Conv2D_15_bn_offset", "shape": [64], "dtype": "float32", "quantization": {"dtype": "float16", "original_dtype": "float32"}}, {"name": "PartitionedCall/PartitionedCall/Conv2D_16_weights", "shape": [1, 1, 64, 384], "dtype": "float32", "quantization": {"dtype": "float16", "original_dtype": "float32"}}, {"name": "PartitionedCall/PartitionedCall/Conv2D_16_bn_offset", "shape": [384], "dtype": "float32", "quantization": {"dtype": "float16", "original_dtype": "float32"}}, {"name": "PartitionedCall/PartitionedCall/depthwise_8_weights", "shape": [3, 3, 384, 1], "dtype": "float32", "quantization": {"dtype": "float16", "original_dtype": "float32"}}, {"name": "PartitionedCall/PartitionedCall/depthwise_8_bn_offset", "shape": [384], "dtype": "float32", "quantization": {"dtype": "float16", "original_dtype": "float32"}}, {"name": "PartitionedCall/PartitionedCall/Conv2D_17_weights", "shape": [1, 1, 384, 64], "dtype": "float32", "quantization": {"dtype": "float16", "original_dtype": "float32"}}, {"name": "PartitionedCall/PartitionedCall/Conv2D_17_bn_offset", "shape": [64], "dtype": "float32", "quantization": {"dtype": "float16", "original_dtype": "float32"}}, {"name": "PartitionedCall/PartitionedCall/Conv2D_18_weights", "shape": [1, 1, 64, 384], "dtype": "float32", "quantization": {"dtype": "float16", "original_dtype": "float32"}}, {"name": "PartitionedCall/PartitionedCall/Conv2D_18_bn_offset", "shape": [384], "dtype": "float32", "quantization": {"dtype": "float16", "original_dtype": "float32"}}, {"name": "PartitionedCall/PartitionedCall/depthwise_9_weights", "shape": [3, 3, 384, 1], "dtype": "float32", "quantization": {"dtype": "float16", "original_dtype": "float32"}}, {"name": "PartitionedCall/PartitionedCall/depthwise_9_bn_offset", "shape": [384], "dtype": "float32", "quantization": {"dtype": "float16", "original_dtype": "float32"}}, {"name": "PartitionedCall/PartitionedCall/Conv2D_19_weights", "shape": [1, 1, 384, 64], "dtype": "float32", "quantization": {"dtype": "float16", "original_dtype": "float32"}}, {"name": "PartitionedCall/PartitionedCall/Conv2D_19_bn_offset", "shape": [64], "dtype": "float32", "quantization": {"dtype": "float16", "original_dtype": "float32"}}, {"name": "PartitionedCall/PartitionedCall/Conv2D_20_weights", "shape": [1, 1, 64, 384], "dtype": "float32", "quantization": {"dtype": "float16", "original_dtype": "float32"}}, {"name": "PartitionedCall/PartitionedCall/Conv2D_20_bn_offset", "shape": [384], "dtype": "float32", "quantization": {"dtype": "float16", "original_dtype": "float32"}}, {"name": "PartitionedCall/PartitionedCall/depthwise_10_weights", "shape": [3, 3, 384, 1], "dtype": "float32", "quantization": {"dtype": "float16", "original_dtype": "float32"}}, {"name": "PartitionedCall/PartitionedCall/depthwise_10_bn_offset", "shape": [384], "dtype": "float32", "quantization": {"dtype": "float16", "original_dtype": "float32"}}, {"name": "PartitionedCall/PartitionedCall/Conv2D_21_weights", "shape": [1, 1, 384, 96], "dtype": "float32", "quantization": {"dtype": "float16", "original_dtype": "float32"}}, {"name": "PartitionedCall/PartitionedCall/Conv2D_21_bn_offset", "shape": [96], "dtype": "float32", "quantization": {"dtype": "float16", "original_dtype": "float32"}}, {"name": "PartitionedCall/PartitionedCall/Conv2D_22_weights", "shape": [1, 1, 96, 576], "dtype": "float32", "quantization": {"dtype": "float16", "original_dtype": "float32"}}, {"name": "PartitionedCall/PartitionedCall/Conv2D_22_bn_offset", "shape": [576], "dtype": "float32", "quantization": {"dtype": "float16", "original_dtype": "float32"}}, {"name": "PartitionedCall/PartitionedCall/depthwise_11_weights", "shape": [3, 3, 576, 1], "dtype": "float32", "quantization": {"dtype": "float16", "original_dtype": "float32"}}, {"name": "PartitionedCall/PartitionedCall/depthwise_11_bn_offset", "shape": [576], "dtype": "float32", "quantization": {"dtype": "float16", "original_dtype": "float32"}}, {"name": "PartitionedCall/PartitionedCall/Conv2D_23_weights", "shape": [1, 1, 576, 96], "dtype": "float32", "quantization": {"dtype": "float16", "original_dtype": "float32"}}, {"name": "PartitionedCall/PartitionedCall/Conv2D_23_bn_offset", "shape": [96], "dtype": "float32", "quantization": {"dtype": "float16", "original_dtype": "float32"}}, {"name": "PartitionedCall/PartitionedCall/Conv2D_24_weights", "shape": [1, 1, 96, 576], "dtype": "float32", "quantization": {"dtype": "float16", "original_dtype": "float32"}}, {"name": "PartitionedCall/PartitionedCall/Conv2D_24_bn_offset", "shape": [576], "dtype": "float32", "quantization": {"dtype": "float16", "original_dtype": "float32"}}, {"name": "PartitionedCall/PartitionedCall/depthwise_12_weights", "shape": [3, 3, 576, 1], "dtype": "float32", "quantization": {"dtype": "float16", "original_dtype": "float32"}}, {"name": "PartitionedCall/PartitionedCall/depthwise_12_bn_offset", "shape": [576], "dtype": "float32", "quantization": {"dtype": "float16", "original_dtype": "float32"}}, {"name": "PartitionedCall/PartitionedCall/Conv2D_25_weights", "shape": [1, 1, 576, 96], "dtype": "float32", "quantization": {"dtype": "float16", "original_dtype": "float32"}}, {"name": "PartitionedCall/PartitionedCall/Conv2D_25_bn_offset", "shape": [96], "dtype": "float32", "quantization": {"dtype": "float16", "original_dtype": "float32"}}, {"name": "PartitionedCall/PartitionedCall/depthwise_13_weights", "shape": [3, 3, 96, 1], "dtype": "float32", "quantization": {"dtype": "float16", "original_dtype": "float32"}}, {"name": "PartitionedCall/PartitionedCall/depthwise_13_bn_offset", "shape": [96], "dtype": "float32", "quantization": {"dtype": "float16", "original_dtype": "float32"}}, {"name": "PartitionedCall/PartitionedCall/Conv2D_36_weights", "shape": [3, 3, 48, 48], "dtype": "float32", "quantization": {"dtype": "float16", "original_dtype": "float32"}}, {"name": "PartitionedCall/PartitionedCall/Conv2D_36_bn_offset", "shape": [48], "dtype": "float32", "quantization": {"dtype": "float16", "original_dtype": "float32"}}, {"name": "PartitionedCall/PartitionedCall/Conv2D_27_weights", "shape": [1, 1, 96, 32], "dtype": "float32", "quantization": {"dtype": "float16", "original_dtype": "float32"}}, {"name": "PartitionedCall/PartitionedCall/Conv2D_27_bn_offset", "shape": [32], "dtype": "float32", "quantization": {"dtype": "float16", "original_dtype": "float32"}}, {"name": "PartitionedCall/PartitionedCall/depthwise_14_weights", "shape": [3, 3, 32, 1], "dtype": "float32", "quantization": {"dtype": "float16", "original_dtype": "float32"}}, {"name": "PartitionedCall/PartitionedCall/depthwise_14_bn_offset", "shape": [32], "dtype": "float32", "quantization": {"dtype": "float16", "original_dtype": "float32"}}, {"name": "PartitionedCall/PartitionedCall/Conv2D_29_weights", "shape": [1, 1, 32, 24], "dtype": "float32", "quantization": {"dtype": "float16", "original_dtype": "float32"}}, {"name": "PartitionedCall/PartitionedCall/Conv2D_29_bn_offset", "shape": [24], "dtype": "float32", "quantization": {"dtype": "float16", "original_dtype": "float32"}}, {"name": "PartitionedCall/PartitionedCall/depthwise_15_weights", "shape": [3, 3, 24, 1], "dtype": "float32", "quantization": {"dtype": "float16", "original_dtype": "float32"}}, {"name": "PartitionedCall/PartitionedCall/depthwise_15_bn_offset", "shape": [24], "dtype": "float32", "quantization": {"dtype": "float16", "original_dtype": "float32"}}, {"name": "PartitionedCall/PartitionedCall/Conv2D_31_weights", "shape": [1, 1, 24, 16], "dtype": "float32", "quantization": {"dtype": "float16", "original_dtype": "float32"}}, {"name": "PartitionedCall/PartitionedCall/Conv2D_31_bn_offset", "shape": [16], "dtype": "float32", "quantization": {"dtype": "float16", "original_dtype": "float32"}}, {"name": "PartitionedCall/PartitionedCall/depthwise_16_weights", "shape": [3, 3, 16, 1], "dtype": "float32", "quantization": {"dtype": "float16", "original_dtype": "float32"}}, {"name": "PartitionedCall/PartitionedCall/depthwise_16_bn_offset", "shape": [16], "dtype": "float32", "quantization": {"dtype": "float16", "original_dtype": "float32"}}, {"name": "PartitionedCall/PartitionedCall/Conv2D_32_weights", "shape": [1, 1, 16, 16], "dtype": "float32", "quantization": {"dtype": "float16", "original_dtype": "float32"}}, {"name": "PartitionedCall/PartitionedCall/Conv2D_32_bn_offset", "shape": [16], "dtype": "float32", "quantization": {"dtype": "float16", "original_dtype": "float32"}}, {"name": "PartitionedCall/PartitionedCall/depthwise_17_weights", "shape": [3, 3, 16, 1], "dtype": "float32", "quantization": {"dtype": "float16", "original_dtype": "float32"}}, {"name": "PartitionedCall/PartitionedCall/depthwise_17_bn_offset", "shape": [16], "dtype": "float32", "quantization": {"dtype": "float16", "original_dtype": "float32"}}, {"name": "PartitionedCall/PartitionedCall/Conv2D_33_weights", "shape": [1, 1, 16, 16], "dtype": "float32", "quantization": {"dtype": "float16", "original_dtype": "float32"}}, {"name": "PartitionedCall/PartitionedCall/Conv2D_33_bn_offset", "shape": [16], "dtype": "float32", "quantization": {"dtype": "float16", "original_dtype": "float32"}}]}]}